examples/microspeech/model_2021_05_12.tflite (tflite, 26720 bytes, 2 tensors)

final_fc_weights/transpose i1 [6, 4000] scale=0.0003281272 zero_point=0
000000 d8 19 c9 0d 07 d9 f7 dc cf eb 13 1f 25 11 da e7
       -0.013125088 0.0082031805 -0.018046996 0.004265654 0.0022968904 -0.012796961 -0.002953145 -0.01181258 -0.016078234 -0.0068906713 0.0062344167 0.010171943 0.012140707 0.0055781626 -0.0124688335 -0.0082031805
000010 03 19 04 11 02 02 f5 05 e4 eb 03 09 ed 19 0a 1d
       0.0009843817 0.0082031805 0.0013125088 0.0055781626 0.0006562544 0.0006562544 -0.0036093993 0.001640636 -0.009187561 -0.0068906713 0.0009843817 0.002953145 -0.0062344167 0.0082031805 0.003281272 0.009515689
000020 e3 10 0a 09 16 34 e3 fa f6 09 00 ef 1c 1e 0e e6
       -0.009515689 0.0052500353 0.003281272 0.002953145 0.0072187986 0.017062616 -0.009515689 -0.0019687633 -0.003281272 0.002953145 0.0 -0.0055781626 0.009187561 0.009843816 0.0045937807 -0.008531308
000030 db 15 df e5 01 22 03 fd f4 17 d6 2b 03 15 02 01
       -0.012140707 0.0068906713 -0.010828198 -0.008859434 0.0003281272 0.011156325 0.0009843817 -0.0009843817 -0.0039375266 0.007546926 -0.013781343 0.01410947 0.0009843817 0.0068906713 0.0006562544 0.0003281272
000040 0b 02 0f e6 05 24 1e fc ca 2e f6 0e 1b 51 fa f8
       0.0036093993 0.0006562544 0.004921908 -0.008531308 0.001640636 0.01181258 0.009843816 -0.0013125088 -0.017718868 0.015093852 -0.003281272 0.0045937807 0.008859434 0.026578303 -0.0019687633 -0.0026250177
000050 01 17 07 f3 ea 2e 17 f2 07 dc f9 0b 35 4d 17 1d
       0.0003281272 0.007546926 0.0022968904 -0.004265654 -0.0072187986 0.015093852 0.007546926 -0.0045937807 0.0022968904 -0.01181258 -0.0022968904 0.0036093993 0.017390743 0.025265794 0.007546926 0.009515689
000060 02 08 02 de f4 38 08 1d 1e 26 c7 20 08 28 15 d9
       0.0006562544 0.0026250177 0.0006562544 -0.011156325 -0.0039375266 0.018375123 0.0026250177 0.009515689 0.009843816 0.0124688335 -0.01870325 0.010500071 0.0026250177 0.013125088 0.0068906713 -0.012796961
000070 f1 e2 f8 ce 1f fb 15 17 18 0a f5 f4 30 3d 0e 16
       -0.004921908 -0.009843816 -0.0026250177 -0.016406361 0.010171943 -0.001640636 0.0068906713 0.007546926 0.007875053 0.003281272 -0.0036093993 -0.0039375266 0.015750106 0.02001576 0.0045937807 0.0072187986
000080 05 11 f6 ea 13 2e 15 cd 0d 01 e7 22 d9 42 37 13
       0.001640636 0.0055781626 -0.003281272 -0.0072187986 0.0062344167 0.015093852 0.0068906713 -0.016734488 0.004265654 0.0003281272 -0.0082031805 0.011156325 -0.012796961 0.021656396 0.018046996 0.0062344167
000090 1a 05 df 23 0d 57 4d fa 24 fe c3 0f e7 e8 52 1b
       0.008531308 0.001640636 -0.010828198 0.0114844525 0.004265654 0.028547067 0.025265794 -0.0019687633 0.01181258 -0.0006562544 -0.02001576 0.004921908 -0.0082031805 -0.007875053 0.02690643 0.008859434
0000a0 1f ca 09 e8 08 e7 0b d5 0a 36 dc fa 0c e8 ca ed
       0.010171943 -0.017718868 0.002953145 -0.007875053 0.0026250177 -0.0082031805 0.0036093993 -0.01410947 0.003281272 0.017718868 -0.01181258 -0.0019687633 0.0039375266 -0.007875053 -0.017718868 -0.0062344167
0000b0 e5 07 e8 25 0a fb e8 26 23 21 31 26 0b 15 ed 0d
       -0.008859434 0.0022968904 -0.007875053 0.012140707 0.003281272 -0.001640636 -0.007875053 0.0124688335 0.0114844525 0.010828198 0.016078234 0.0124688335 0.0036093993 0.0068906713 -0.0062344167 0.004265654
0000c0 d6 16 fb 29 10 d9 03 f1 14 1a eb c8 d8 f9 cb f3
       -0.013781343 0.0072187986 -0.001640636 0.013453215 0.0052500353 -0.012796961 0.0009843817 -0.004921908 0.006562544 0.008531308 -0.0068906713 -0.018375123 -0.013125088 -0.0022968904 -0.017390743 -0.004265654
0000d0 2b f8 23 0d ec 00 cf fb f8 f6 ed f3 f7 17 f0 18
       0.01410947 -0.0026250177 0.0114844525 0.004265654 -0.006562544 0.0 -0.016078234 -0.001640636 -0.0026250177 -0.003281272 -0.0062344167 -0.004265654 -0.002953145 0.007546926 -0.0052500353 0.007875053
0000e0 24 0d e0 ff 22 01 fc e1 17 ff e4 f4 dd 26 1e d0
       0.01181258 0.004265654 -0.010500071 -0.0003281272 0.011156325 0.0003281272 -0.0013125088 -0.010171943 0.007546926 -0.0003281272 -0.009187561 -0.0039375266 -0.0114844525 0.0124688335 0.009843816 -0.015750106
0000f0 1a 30 08 1a f8 37 f2 1c 22 0c fd f0 22 e5 f2 eb
       0.008531308 0.015750106 0.0026250177 0.008531308 -0.0026250177 0.018046996 -0.0045937807 0.009187561 0.011156325 0.0039375266 -0.0009843817 -0.0052500353 0.011156325 -0.008859434 -0.0045937807 -0.0068906713

first_weights i1 [1, 10, 8, 8]
000000 08 d7 04 7f c2 e2 ae ef 2a d8 03 3d a0 ed e6 2c
       8 -41 4 127 -62 -30 -82 -17 42 -40 3 61 -96 -19 -26 44
000010 24 98 2f 44 c5 dd a0 0c 3a e3 0e 09 fe f9 ce e2
       36 -104 47 68 -59 -35 -96 12 58 -29 14 9 -2 -7 -50 -30
000020 2d e3 4d 16 f5 0e f4 b4 51 81 14 10 d1 66 d9 99
       45 -29 77 22 -11 14 -12 -76 81 -127 20 16 -47 102 -39 -103
000030 54 e6 15 ed 03 53 e1 23 5f b6 7f f1 e0 d4 b8 1f
       84 -26 21 -19 3 83 -31 35 95 -74 127 -15 -32 -44 -72 31
000040 2b 0a 0a 34 e8 ca ff 0f 10 d5 2a 52 d5 d9 ec d9
       43 10 10 52 -24 -54 -1 15 16 -43 42 82 -43 -39 -20 -39
000050 53 cc 25 33 d8 d3 17 0e 50 d8 47 44 d2 f4 e4 10
       83 -52 37 51 -40 -45 23 14 80 -40 71 68 -46 -12 -28 16
000060 51 09 14 fa 0d 10 02 9f 5a d0 0a d7 c4 71 c2 b4
       81 9 20 -6 13 16 2 -97 90 -48 10 -41 -60 113 -62 -76
000070 52 de 52 d4 b8 28 06 0f 3c b5 36 e5 09 e3 b7 24
       82 -34 82 -44 -72 40 6 15 60 -75 54 -27 9 -29 -73 36
000080 0b 71 0d 5b c3 b9 18 b4 dd 48 2b 50 16 ed fa 99
       11 113 13 91 -61 -71 24 -76 -35 72 43 80 22 -19 -6 -103
000090 36 20 05 0b f1 dc fa b0 2e f2 1a 35 02 0e d9 e6
       54 32 5 11 -15 -36 -6 -80 46 -14 26 53 2 14 -39 -26
0000a0 26 b6 2e be ab 0f 3c f7 11 f4 0c ed 62 7f c1 39
       38 -74 46 -66 -85 15 60 -9 17 -12 12 -19 98 127 -63 57
0000b0 2e 40 e6 be 79 4f d3 c7 4f 22 fd c5 be 95 a3 1e
       46 64 -26 -66 121 79 -45 -57 79 34 -3 -59 -66 -107 -93 30
0000c0 a1 46 bd 43 20 b8 22 ea c1 f9 ac 05 a3 b0 0a ff
       -95 70 -67 67 32 -72 34 -22 -63 -7 -84 5 -93 -80 10 -1
0000d0 e9 07 d9 0b ed cd 08 1d e4 5f aa 19 2a f1 f5 1a
       -23 7 -39 11 -19 -51 8 29 -28 95 -86 25 42 -15 -11 26
0000e0 d0 1c e4 f6 cc fa 26 e6 df 69 c8 de de 67 e4 1e
       -48 28 -28 -10 -52 -6 38 -26 -33 105 -56 -34 -34 103 -28 30
0000f0 d8 08 c2 c6 f2 5f fa 9d 23 25 22 b7 81 c0 81 77
       -40 8 -62 -58 -14 95 -6 -99 35 37 34 -73 -127 -64 -127 119
