examples/microspeech/model.tflite (tflite, 26720 bytes, 2 tensors)

final_fc_weights/transpose i1 [6, 4000] scale=0.00056043005 zero_point=0
0.0039230105 -0.0044834404 -0.0050438703 0.0056043006 -0.012889891 -0.007846021 0.0028021503 -0.0061647305
0.0061647305 0.00056043005 0.0028021503 -0.00056043005 0.00056043005 -0.0050438703 0.0072855907 -0.0145711815
0.0022417202 0.0056043006 -0.017933762 -0.020175481 0.016252471 0.0022417202 -0.011769031 -0.0039230105
-0.0028021503 0.0 -0.0061647305 -0.020735912 0.0145711815 0.0061647305 0.0056043006 -0.013450321
-0.00056043005 0.012889891 0.012329461 0.0056043006 0.016252471 0.0050438703 -0.0061647305 0.01737333
-0.0050438703 -0.010087741 0.0 -0.018494193 0.007846021 -0.00056043005 -0.0067251604 0.0039230105
0.0016812901 -0.00056043005 0.0072855907 -0.025779782 0.009527311 0.0056043006 -0.0050438703 0.007846021
0.008406451 0.0016812901 -0.0028021503 0.00056043005 0.012889891 -0.0016812901 -0.007846021 0.00056043005
-0.0145711815 0.00056043005 0.0033625802 -0.015131611 0.024098493 -0.009527311 -0.0033625802 0.017933762
0.0072855907 -0.008406451 0.0028021503 0.0028021503 0.026340213 0.011769031 0.0044834404 0.0067251604
0.0044834404 0.011208601 -0.015692042 -0.025779782 0.026900642 -0.0033625802 0.00056043005 0.008406451
0.0022417202 -0.00056043005 0.00056043005 -0.015131611 0.026340213 -0.012889891 -0.011769031 0.015692042
0.0033625802 0.011208601 -0.0016812901 -0.0039230105 0.028581932 -0.010648171 -0.0033625802 0.019615052
-0.0056043006 -0.0050438703 -0.015131611 -0.011208601 0.032504942 -0.0033625802 0.007846021 -0.0050438703
0.012889891 -0.016252471 0.0044834404 0.0050438703 0.034186233 -0.0072855907 0.0050438703 0.021856772
-0.0044834404 0.0033625802 0.0011208601 -0.016252471 0.039230105 -0.0072855907 -0.008966881 0.017933762
-0.0050438703 0.0072855907 -0.016812902 -0.010087741 0.031384084 -0.009527311 -0.015692042 0.029142363
-0.0039230105 -0.008966881 -0.0050438703 -0.015131611 0.038669672 0.0028021503 0.0039230105 0.016812902
0.0044834404 0.008966881 0.0072855907 -0.0039230105 0.042592686 0.0050438703 -0.0011208601 0.018494193
-0.018494193 -0.0056043006 -0.0028021503 0.019615052 0.011208601 -0.020175481 -0.013450321 0.010648171
-0.0028021503 -0.0039230105 0.011208601 -0.014010752 -0.0067251604 -0.0067251604 0.0 -0.022977632
-0.0067251604 -0.0011208601 0.010648171 -0.0056043006 0.008406451 0.008966881 -0.0039230105 -0.01737333
0.0061647305 0.0011208601 0.0044834404 -0.0056043006 0.00056043005 -0.0067251604 -0.0016812901 -0.01737333
-0.017933762 -0.016812902 -0.0145711815 -0.008406451 0.012329461 -0.0067251604 0.0011208601 -0.0028021503
-0.0145711815 0.011208601 -0.0067251604 0.0022417202 -0.0022417202 -0.0044834404 -0.013450321 0.0016812901
0.0016812901 -0.0056043006 0.0067251604 0.00056043005 -0.0028021503 0.0039230105 -0.008406451 -0.0016812901
0.018494193 -0.007846021 0.019615052 0.008966881 0.015692042 -0.015692042 -0.019054621 -0.0033625802
-0.01737333 -0.0056043006 -0.0061647305 0.0022417202 0.00056043005 -0.009527311 0.0028021503 0.0011208601
-0.0050438703 0.0050438703 0.0016812901 -0.0039230105 0.008406451 -0.017933762 0.0061647305 0.0050438703
0.0016812901 0.017933762 0.011769031 0.012889891 -0.0028021503 0.0044834404 -0.007846021 0.0061647305
0.0072855907 0.0033625802 0.008966881 0.0011208601 0.0033625802 -0.0039230105 0.0050438703 -0.009527311
-0.0022417202 0.015131611 0.009527311 -0.010087741 0.0039230105 -0.00056043005 -0.017933762 -0.0050438703
00000000: 07f8 f70a e9f2 05f5 0b01 05ff 01f7 0de6
00000010: 040a e0dc 1d04 ebf9 fb00 f5db 1a0b 0ae8
00000020: ff17 160a 1d09 f51f f7ee 00df 0eff f407
00000030: 03ff 0dd2 110a f70e 0f03 fb01 17fd f201
00000040: e601 06e5 2bef fa20 0df1 0505 2f15 080c
00000050: 0814 e4d2 30fa 010f 04ff 01e5 2fe9 eb1c
00000060: 0614 fdf9 33ed fa23 f6f7 e5ec 3afa 0ef7
00000070: 17e3 0809 3df3 0927 f806 02e3 46f3 f020
00000080: f70d e2ee 38ef e434 f9f0 f7e5 4505 071e
00000090: 0810 0df9 4c09 fe21 dff6 fb23 14dc e813
000000a0: fbf9 14e7 f4f4 00d7 f4fe 13f6 0f10 f9e1
000000b0: 0b02 08f6 01f4 fde1 e0e2 e6f1 16f4 02fb
000000c0: e614 f404 fcf8 e803 03f6 0c01 fb07 f1fd
000000d0: 21f2 2310 1ce4 defa e1f6 f504 01ef 0502
000000e0: f709 03f9 0fe0 0b09 0320 1517 fb08 f20b
000000f0: 0d06 1002 06f9 09ef fc1b 11ee 07ff e0f7

first_weights i1 [1, 10, 8, 8]
-35 -92 -83 -119 93 -20 127 8
-23 -46 91 -52 119 -17 83 60
6 73 3 -15 90 -7 20 57
20 -23 -96 -12 4 -37 23 101
-10 -50 42 0 -10 -36 -3 25
50 -68 -44 -7 -35 8 2 -12
39 -26 -18 15 -79 -17 -29 2
122 -6 -21 3 -127 10 -73 -100
-9 -69 -54 -81 12 -14 64 -44
2 -46 11 -41 -3 2 46 8
54 33 -9 -15 39 9 -7 28
31 -15 -79 6 -20 -18 -10 88
41 -43 64 -1 -36 -8 -9 33
59 19 -64 19 -26 -16 -11 8
54 -12 77 19 -54 -7 -20 -15
126 -71 -34 37 -76 -12 -46 -78
-34 -11 -14 -102 -29 26 40 -64
-17 -81 -90 -53 -29 24 21 -64
16 81 -56 -39 11 14 -22 17
9 -82 -12 -18 -37 44 -19 35
0 44 -63 -8 -21 16 15 44
31 -57 -28 12 -22 -27 -8 16
31 -21 48 32 -23 -11 -3 51
74 -11 103 41 -30 25 -60 -22
-106 -98 -43 -39 -42 11 49 -43
-62 -24 -96 -68 -43 25 -7 -62
-8 -76 90 -36 8 2 7 1
-40 16 -75 -37 -26 29 -7 45
-10 8 -58 -24 -2 3 -15 48
-11 48 -89 2 8 -18 -8 12
-14 -8 63 36 3 -23 -20 65
17 89 18 10 47 -3 -67 -56
00000000: dda4 ad89 5dec 7f08 e9d2 5bcc 77ef 533c
00000010: 0649 03f1 5af9 1439 14e9 a0f4 04db 1765
00000020: f6ce 2a00 f6dc fd19 32bc d4f9 dd08 02f4
00000030: 27e6 ee0f b1ef e302 7afa eb03 810a b79c
00000040: f7bb caaf 0cf2 40d4 02d2 0bd7 fd02 2e08
00000050: 3621 f7f1 2709 f91c 1ff1 b106 ecee f658
00000060: 29d5 40ff dcf8 f721 3b13 c013 e6f0 f508
00000070: 36f4 4d13 caf9 ecf1 7eb9 de25 b4f4 d2b2
00000080: def5 f29a e31a 28c0 efaf a6cb e318 15c0
00000090: 1051 c8d9 0b0e ea11 09ae f4ee db2c ed23
000000a0: 002c c1f8 eb10 0f2c 1fc7 e40c eae5 f810
000000b0: 1feb 3020 e9f5 fd33 4af5 6729 e219 c4ea
000000c0: 969e d5d9 d60b 31d5 c2e8 a0bc d519 f9c2
000000d0: f8b4 5adc 0802 0701 d810 b5db e61d f92d
000000e0: f608 c6e8 fe03 f130 f530 a702 08ee f80c
000000f0: f2f8 3f24 03e9 ec41 1159 120a 2ffd bdc8
