examples/person_detection/rune-rs/person_detection.tflite (tflite, 235696 bytes, 28 tensors)

MobilenetV1/Conv2d_0/weights_quant/FakeQuantWithMinMaxVars u1 [1, 3, 3, 8] scale=0.024417637 zero_point=134
-0.048835274 0.024417637 0.0 0.0 0.024417637 -0.7813644 2.3196754 -0.21975873
-0.6836938 -0.17092346 0.0 0.0 0.48835275 0.17092346 2.954534 -0.41509983
-0.56160563 0.21975873 0.0 0.0 -0.024417637 -0.024417637 1.7092346 -0.14650582
0.0 0.31742927 0.0 0.0 0.048835274 -1.2697171 -0.43951747 -0.537188
-1.4650582 -1.1476289 0.0 0.0 1.4406406 0.3906822 -0.83019966 -0.95228785
-2.1975873 0.6836938 0.0 0.0 -0.024417637 0.048835274 -0.3418469 -0.51277035
0.048835274 0.5860233 0.0 0.0 0.14650582 -0.5860233 -1.7092346 -0.09767055
-0.07325291 -1.1720465 0.0 0.0 0.5860233 0.21975873 -3.2475457 -0.24417637
-0.51277035 0.6104409 0.0 0.0 -0.048835274 0.024417637 -0.56160563 -0.07325291
00000000: 8487 8686 8766 e57d 6a7f 8686 9a8d ff75
00000010: 6f8f 8686 8585 cc80 8693 8686 8852 7470
00000020: 4a57 8686 c196 645f 2ca2 8686 8588 7871
00000030: 889e 8686 8c6e 4082 8356 8686 9e8f 017c
00000040: 719f 8686 8487 6f83

MobilenetV1/Conv2d_10_depthwise/weights_quant/FakeQuantWithMinMaxVars u1 [1, 3, 3, 128] scale=0.012122264 zero_point=108
-0.20607848 0.6788468 0.25456753 -0.31517887 0.56974643 0.64248 0.69096905 0.7152136
-0.18183397 0.7152136 0.6667245 0.5455019 0.43640152 0.07273358 0.09697811 -0.27881208
-0.060611323 0.5333796 -0.23032302 -0.31517887 -0.36366794 0.5939909 -0.08485585 -0.5939909
0.15758944 -0.48489058 -0.31517887 0.75158036 -0.58186865 0.060611323 -0.36366794 -0.4727683
0.61823547 0.18183397 0.58186865 -0.09697811 -0.19395623 0.5455019 -0.24244529 -0.07273358
0.10910038 -0.7152136 -0.7879472 -0.048489057 -0.42427924 -0.18183397 -0.31517887 0.96978116
-0.43640152 -0.50913507 0.7152136 -0.55762416 0.5333796 0.2666898 0.61823547 0.7152136
-0.7758249 -0.35154566 -0.24244529 -0.38791245 0.56974643 -0.18183397 0.09697811 0.19395623
0.09697811 -0.35154566 -0.44852376 -0.6546023 0.5455019 0.56974643 0.2666898 -0.37579018
0.82431394 -0.52125734 -0.35154566 -0.20607848 -0.52125734 -0.012122264 0.012122264 0.46064603
-0.060611323 0.27881208 0.44852376 0.24244529 0.3030566 -0.56974643 -0.4727683 -0.32730114
-0.4727683 0.7152136 -0.15758944 -0.42427924 -0.42427924 -0.7030913 0.24244529 -0.20607848
-0.43640152 0.3394234 0.14546716 0.49701282 0.64248 0.35154566 -0.07273358 -0.2666898
0.24244529 -0.40003473 -0.32730114 -0.32730114 -0.52125734 0.07273358 0.37579018 -0.75158036
0.03636679 -0.38791245 -0.7758249 -0.29093432 0.64248 0.46064603 -0.20607848 1.0182701
0.7394581 0.121222645 -0.5333796 0.012122264 -0.21820076 -0.49701282 -0.08485585 -0.7273359
-0.024244528 0.6546023 -0.012122264 -0.44852376 0.7758249 0.31517887 0.6061132 0.64248
0.24244529 0.32730114 0.38791245 -0.024244528 0.10910038 0.6061132 0.7152136 -0.060611323
-0.20607848 0.7879472 -0.10910038 -0.35154566 0.20607848 0.121222645 -0.63035774 -0.27881208
0.048489057 -0.50913507 -0.35154566 0.121222645 -0.42427924 -0.92129207 -0.20607848 -0.1333449
0.5333796 0.10910038 -0.31517887 -0.14546716 -0.24244529 1.0788815 -0.10910038 0.10910038
-0.1333449 -0.35154566 -0.23032302 0.024244528 -0.38791245 0.35154566 -0.2666898 -0.29093432
0.7152136 -0.15758944 0.49701282 -0.48489058 0.96978116 0.93341434 0.44852376 0.49701282
-0.09697811 0.46064603 -0.49701282 0.41215697 -0.27881208 -0.07273358 -0.41215697 1.1637373
-0.36366794 0.024244528 -0.31517887 -0.25456753 0.36366794 0.7030913 0.8849253 -0.7030913
0.25456753 -0.36366794 -0.36366794 0.6061132 -0.08485585 0.52125734 0.7030913 0.3030566
0.40003473 0.2666898 0.2666898 0.048489057 0.41215697 -0.50913507 0.82431394 -0.44852376
-0.46064603 -0.048489057 -0.14546716 0.46064603 0.9091698 0.24244529 0.121222645 0.048489057
-0.2666898 0.6061132 0.4727683 0.7152136 0.61823547 1.0788815 -0.6061132 -0.25456753
0.5939909 -0.2666898 0.3030566 -0.20607848 -0.18183397 -0.14546716 0.7394581 -0.38791245
-0.40003473 -0.3394234 -0.03636679 -0.27881208 0.80006945 0.5455019 -0.21820076 0.46064603
0.43640152 0.19395623 -0.55762416 -0.20607848 -0.6667245 -0.23032302 -0.19395623 -0.09697811
00000000: 5ba4 8152 9ba1 a5a7 5da7 a399 9072 7455
00000010: 6798 5952 4e9d 653b 7944 52aa 3c71 4e45
00000020: 9f7b 9c64 5c99 5866 7531 2b68 495d 52bc
00000030: 4842 a73e 9882 9fa7 2c4f 584c 9b5d 747c
00000040: 744f 4736 999b 824d b041 4f5b 416b 6d92
00000050: 6783 9180 853d 4551 45a7 5f49 4932 805b
00000060: 4888 7895 a189 6656 804b 5151 4172 8b2e
00000070: 6f4c 2c54 a192 5bc0 a976 406d 5a43 6530
00000080: 6aa2 6b47 ac86 9ea1 8087 8c6a 759e a767
00000090: 5bad 634f 7d76 3855 7042 4f76 4920 5b61
000000a0: 9875 5260 58c5 6375 614f 596e 4c89 5654
000000b0: a75f 9544 bcb9 9195 6492 438e 5566 4acc
000000c0: 4e6e 5257 8aa6 b532 814e 4e9e 6597 a685
000000d0: 8d82 8270 8e42 b047 4668 6092 b780 7670
000000e0: 569e 93a7 9fc5 3a57 9d56 855b 5d60 a94c
000000f0: 4b50 6955 ae99 5a92 907c 3e5b 3559 5c64

MobilenetV1/Conv2d_10_pointwise/weights_quant/FakeQuantWithMinMaxVars u1 [128, 1, 1, 128] scale=0.0039515826 zero_point=126
-0.04741899 -0.07903165 -0.1145959 -0.023709495 0.007903165 0.09483798 -0.04346741 0.0671769
0.20548229 0.3161266 0.19362755 0.17782122 0.01580633 -0.1580633 -0.1343538 0.035564244
-0.055322155 -0.0039515826 0.027661078 0.0 -0.027661078 -0.027661078 -0.11064431 0.04741899
-0.0671769 -0.01580633 0.01580633 -0.019757913 -0.14620855 -0.16596647 -0.01580633 0.15016013
-0.20943388 0.019757913 0.007903165 0.2529013 0.102741145 -0.098789565 0.08298323 0.023709495
0.20153071 -0.039515827 0.011854747 0.08693482 -0.055322155 -0.1343538 0.18572438 0.01580633
-0.13040222 -0.07112849 -0.1343538 -0.039515827 0.06322532 -0.09483798 -0.1343538 0.22128862
0.051370572 0.03161266 -0.051370572 -0.01580633 -0.10669273 -0.027661078 -0.06322532 0.019757913
0.01580633 0.01580633 -0.0039515826 -0.1383054 -0.16596647 0.04346741 -0.2766108 -0.19362755
-0.04741899 -0.098789565 -0.027661078 0.08693482 -0.09483798 -0.16201489 0.098789565 0.051370572
-0.011854747 0.007903165 -0.05927374 0.01580633 0.11854748 -0.17782122 -0.035564244 0.09483798
0.051370572 0.011854747 0.01580633 -0.11064431 -0.12645064 0.16201489 -0.1383054 -0.1343538
-0.023709495 -0.023709495 -0.039515827 0.0039515826 0.04346741 0.1383054 -0.12249906 0.1145959
0.023709495 -0.039515827 0.11064431 -0.051370572 -0.18572438 0.2252402 -0.09483798 -0.023709495
0.0039515826 -0.035564244 -0.039515827 0.1343538 0.04346741 0.10669273 -0.098789565 -0.14225698
0.05927374 0.03161266 0.039515827 -0.07508007 -0.08298323 0.17386964 0.011854747 0.0671769
0.007903165 -0.055322155 0.12645064 -0.035564244 0.07112849 -0.05927374 0.051370572 -0.03161266
-0.051370572 0.0039515826 -0.1343538 -0.039515827 0.102741145 -0.19757913 0.05927374 0.04346741
0.027661078 -0.08693482 0.039515827 -0.16201489 0.05927374 0.027661078 -0.12645064 -0.04741899
-0.039515827 0.18572438 0.027661078 -0.1580633 -0.3358845 -0.19362755 -0.08298323 0.0
0.11854748 -0.11854748 0.09483798 0.14225698 0.007903165 -0.04741899 0.04741899 0.07508007
0.007903165 0.09483798 -0.102741145 0.019757913 -0.09483798 -0.027661078 0.13040222 -0.18572438
0.1580633 0.07112849 -0.08298323 -0.08693482 -0.07508007 0.2252402 -0.039515827 -0.1580633
0.18572438 -0.019757913 -0.1145959 0.03161266 -0.051370572 0.0908864 0.007903165 0.055322155
0.01580633 -0.13040222 -0.051370572 -0.09483798 0.15016013 -0.011854747 -0.0671769 0.04346741
0.20943388 -0.027661078 -0.023709495 -0.051370572 0.09483798 0.1343538 0.0 0.0908864
0.21338546 0.09483798 0.039515827 0.039515827 -0.17782122 -0.035564244 -0.055322155 -0.24104653
-0.04741899 0.0908864 0.039515827 -0.027661078 0.011854747 -0.16991805 -0.15016013 0.051370572
0.04346741 0.07903165 -0.2252402 -0.20943388 -0.039515827 -0.12249906 -0.01580633 0.023709495
0.07508007 0.04346741 -0.15016013 0.04741899 -0.023709495 -0.055322155 0.035564244 0.01580633
0.08298323 -0.07508007 -0.10669273 0.04741899 0.0671769 0.1145959 -0.098789565 0.37144876
0.04741899 0.08298323 0.11854748 0.15411173 -0.06322532 0.14225698 -0.14620855 0.14225698
00000000: 726a 6178 8096 738f b2ce afab 8256 5c87
00000010: 707d 857e 7777 628a 6d7a 8279 5954 7aa4
00000020: 4983 80be 9865 9384 b174 8194 705c ad82
00000030: 5d6c 5c74 8e66 5cb6 8b86 717a 6377 6e83
00000040: 8282 7d5b 5489 384d 7265 7794 6655 978b
00000050: 7b80 6f82 9c51 7596 8b81 8262 5ea7 5b5c
00000060: 7878 747f 89a1 5f9b 8474 9a71 4fb7 6678
00000070: 7f75 74a0 8999 655a 8d86 886b 69aa 818f
00000080: 8070 9e75 906f 8b76 717f 5c74 984c 8d89
00000090: 8568 8855 8d85 5e72 74ad 8556 294d 697e
000000a0: 9c60 96a2 8072 8a91 8096 6483 6677 9f4f
000000b0: a690 6968 6bb7 7456 ad79 6186 7195 808c
000000c0: 825d 7166 a47b 6d89 b377 7871 96a0 7e95
000000d0: b496 8888 5175 7041 7295 8877 8153 588b
000000e0: 8992 4549 745f 7a84 9189 588a 7870 8782
000000f0: 936b 638a 8f9b 65dc 8a93 9ca5 6ea2 59a2

MobilenetV1/Conv2d_11_depthwise/weights_quant/FakeQuantWithMinMaxVars u1 [1, 3, 3, 128] scale=0.011124006 zero_point=128
-0.34484416 -0.51170427 0.6785643 -0.54507625 -0.55620027 -0.75643235 -0.088992044 -0.43383622
0.4115882 -0.2002321 0.66744035 0.6118203 -0.2002321 0.23360412 -0.5228283 -0.87879646
-0.31147215 -0.26697612 0.4115882 -0.15573607 -0.6340683 0.7453084 -1.0122845 -0.44496024
0.033372015 -1.3460047 -0.5673243 1.2458886 0.25585213 -0.35596818 -0.4004642 -0.23360412
-0.27810013 -0.6229443 -0.47833225 0.14461207 0.75643235 0.6229443 -0.23360412 -0.44496024
0.15573607 -0.3893402 0.5895723 0.13348806 -1.2125165 -0.18910809 0.32259616 0.5673243
-0.35596818 -0.54507625 -0.23360412 0.54507625 -0.3670922 0.92329246 -0.28922415 0.4115882
-0.6340683 0.35596818 0.5673243 0.54507625 -0.4004642 -0.6340683 0.14461207 0.11124006
-0.3670922 -0.27810013 -0.011124006 0.55620027 -0.5784483 -0.6785643 0.22248012 -0.33372018
-0.7786804 -0.30034816 -0.30034816 0.022248011 0.18910809 -0.33372018 -0.48945624 -0.71193635
-0.72306037 0.3670922 -0.53395224 -0.7786804 0.4004642 0.4004642 1.0901525 0.14461207
-0.47833225 -0.37821618 -0.30034816 0.66744035 -0.6229443 -0.32259616 -0.4004642 0.5784483
0.86767244 -0.33372018 0.27810013 -0.87879646 0.23360412 0.06674403 0.14461207 -0.6006963
0.7453084 -0.4004642 -0.45608422 -0.71193635 0.9010444 -0.24472812 0.54507625 0.65631634
0.6118203 0.47833225 0.10011605 0.65631634 0.71193635 -0.35596818 0.7453084 0.46720824
-0.4004642 -0.23360412 -0.65631634 0.55620027 0.7341844 -0.37821618 -0.022248011 -0.6896883
-0.8343004 -0.06674403 1.1124005 -0.13348806 -0.45608422 -0.31147215 0.12236406 -0.27810013
0.8231764 0.25585213 0.6896883 0.32259616 0.011124006 0.35596818 -0.6006963 -0.4115882
-0.044496022 -0.13348806 -0.2113561 -0.6451923 0.088992044 -0.34484416 0.011124006 0.15573607
0.18910809 0.7898044 -0.5895723 -0.66744035 0.48945624 -0.47833225 -0.06674403 -0.9789125
-0.35596818 -0.33372018 -0.76755637 -1.0011605 0.4115882 -0.05562003 0.32259616 -0.27810013
-0.2113561 -0.2113561 0.31147215 -0.6896883 0.31147215 -0.30034816 0.14461207 0.51170427
0.33372018 -0.33372018 -0.12236406 0.7341844 -0.16686009 -0.011124006 -0.033372015 0.9455405
-0.6451923 0.4227122 0.70081234 0.5673243 -0.5228283 -0.26697612 0.53395224 0.26697612
-0.10011605 -0.8009284 -0.26697612 0.088992044 -0.35596818 0.28922415 0.43383622 -0.55620027
0.23360412 -0.35596818 -0.34484416 0.43383622 0.35596818 0.16686009 -0.37821618 -0.35596818
-0.3670922 0.7453084 -0.2113561 -0.14461207 0.4004642 0.30034816 -0.24472812 0.31147215
-0.17798409 -0.70081234 0.14461207 0.4004642 -0.088992044 -0.4227122 -0.3893402 0.48945624
0.17798409 -0.35596818 1.1457726 -0.11124006 0.11124006 0.3893402 0.17798409 -0.6006963
0.55620027 0.10011605 0.18910809 -0.46720824 -0.30034816 -0.66744035 0.0 0.54507625
0.6340683 0.28922415 -0.27810013 0.75643235 -0.10011605 -0.28922415 0.17798409 0.07786804
-0.11124006 -1.0011605 0.14461207 0.044496022 0.37821618 -0.37821618 -0.28922415 -0.43383622
00000000: 6152 bd4f 4e3c 7859 a56e bcb7 6e95 5131
00000010: 6468 a572 47c3 2558 8307 4df0 9760 5c6b
00000020: 6748 558d c4b8 6b58 8e5d b58c 136f 9db3
00000030: 604f 6bb1 5fd3 66a5 47a0 b3b1 5c47 8d8a
00000040: 5f67 7fb2 4c43 9462 3a65 6582 9162 5440
00000050: 3fa1 503a a4a4 e28d 555e 65bc 4863 5cb4
00000060: ce62 9931 9586 8d4a c35c 5740 d16a b1bb
00000070: b7ab 89bb c060 c3aa 5c6b 45b2 c25e 7e42
00000080: 357a e474 5764 8b67 ca97 be9d 81a0 4a5b
00000090: 7c74 6d46 8861 818e 91c7 4b44 ac55 7a28
000000a0: 6062 3b26 a57b 9d67 6d6d 9c42 9c65 8dae
000000b0: 9e62 75c2 717f 7dd5 46a6 bfb3 5168 b098
000000c0: 7738 6888 609a a74e 9560 61a7 a08f 5e60
000000d0: 5fc3 6d73 a49b 6a9c 7041 8da4 785a 5dac
000000e0: 9060 e776 8aa3 904a b289 9156 6544 80b1
000000f0: b99a 67c4 7766 9087 7626 8d84 a25e 6659

MobilenetV1/Conv2d_11_pointwise/weights_quant/FakeQuantWithMinMaxVars u1 [128, 1, 1, 128] scale=0.0037297201 zero_point=99
-0.029837761 0.16410768 0.119351044 0.16783741 0.1305402 -0.14545909 -0.15664825 0.055945802
-0.0074594403 0.03356748 -0.0074594403 -0.22751293 -0.08951329 -0.0745944 0.14172937 -0.12681049
-0.093243 0.2610804 0.052216083 -0.09697273 -0.33940452 -0.1305402 -0.10816188 0.15291853
-0.0186486 -0.078324124 0.04102692 -0.059675522 -0.2424318 0.13426992 -0.014918881 0.08205384
0.014918881 -0.03356748 -0.06713496 0.11562132 -0.070864685 -0.0372972 -0.15664825 -0.078324124
0.022378322 0.063405246 0.0372972 -0.022378322 0.0 -0.12681049 0.23124264 -0.052216083
-0.08951329 -0.026108041 -0.06713496 0.070864685 0.059675522 -0.026108041 -0.044756643 -0.09697273
-0.044756643 -0.063405246 0.17902657 -0.119351044 -0.19021572 -0.15664825 -0.063405246 0.055945802
-0.048486363 -0.17156713 -0.0745944 0.08951329 0.0745944 -0.30583706 0.12308077 -0.022378322
-0.070864685 0.13426992 0.026108041 -0.08205384 0.093243 0.1491888 -0.06713496 0.08578356
-0.03356748 -0.10816188 -0.093243 -0.15664825 -0.19021572 -0.25362098 -0.16037796 -0.23497237
-0.014918881 -0.011189161 -0.022378322 0.18275629 -0.0372972 -0.055945802 -0.1491888 0.22751293
-0.104432166 0.0037297201 -0.044756643 -0.014918881 0.10070244 -0.059675522 0.21632376 0.10070244
0.0 -0.111891605 0.16783741 0.24616154 -0.08578356 -0.078324124 0.044756643 -0.12308077
0.26853985 -0.21259405 0.104432166 0.08578356 -0.048486363 -0.022378322 -0.0372972 -0.12681049
-0.0074594403 -0.011189161 0.0186486 0.25735068 0.093243 -0.20140488 -0.16410768 -0.19394545
0.17156713 -0.063405246 0.15291853 0.0745944 0.23124264 -0.022378322 0.06713496 -0.055945802
0.055945802 0.09697273 -0.059675522 -0.026108041 0.04102692 0.104432166 -0.022378322 -0.029837761
0.048486363 -0.04102692 -0.3132965 -0.0745944 0.16783741 0.063405246 -0.2200535 0.014918881
-0.1305402 0.029837761 -0.048486363 0.04102692 -0.029837761 0.026108041 0.0074594403 0.12681049
-0.14545909 0.04102692 0.08951329 -0.044756643 -0.12681049 0.13426992 -0.059675522 -0.055945802
-0.078324124 -0.070864685 0.0372972 -0.19394545 -0.17902657 -0.10070244 0.052216083 0.029837761
-0.08578356 0.029837761 0.0372972 0.10816188 -0.10070244 -0.12681049 -0.0745944 0.09697273
-0.23870209 0.12681049 -0.14172937 -0.0186486 0.0037297201 0.06713496 -0.078324124 -0.0037297201
-0.12681049 -0.078324124 0.13426992 0.19767517 -0.104432166 0.08951329 -0.104432166 -0.048486363
0.093243 -0.026108041 -0.044756643 -0.026108041 -0.16037796 -0.059675522 -0.026108041 0.0186486
0.16410768 -0.2200535 -0.04102692 0.16037796 0.026108041 -0.13426992 0.17529684 -0.08951329
0.08578356 -0.20140488 0.27599928 -0.18275629 -0.1305402 0.014918881 0.026108041 0.09697273
0.186486 -0.093243 -0.06713496 -0.0074594403 0.15291853 0.14172937 0.32075593 -0.055945802
-0.063405246 -0.0186486 0.063405246 -0.029837761 -0.03356748 -0.026108041 0.059675522 -0.1491888
-0.014918881 -0.15664825 -0.04102692 0.011189161 -0.029837761 -0.10816188 -0.16783741 0.0074594403
0.0037297201 0.10070244 0.27226958 -0.063405246 0.13426992 -0.13426992 -0.044756643 0.119351044
00000000: 5b8f 8390 863c 3972 616c 6126 4b4f 8941
00000010: 4aa9 7149 0840 468c 5e4e 6e53 2287 5f79
00000020: 675a 5182 5059 394e 6974 6d5d 6341 a155
00000030: 4b5c 5176 735c 5749 5752 9343 3039 5272
00000040: 5635 4f7b 7711 845d 5087 6a4d 7c8b 517a
00000050: 5a46 4a39 301f 3824 5f60 5d94 5954 3ba0
00000060: 4764 575f 7e53 9d7e 6345 90a5 4c4e 6f42
00000070: ab2a 7f7a 565d 5941 6160 68a8 7c2d 372f
00000080: 9152 8c77 a15d 7554 727d 535c 6e7f 5d5b
00000090: 7058 0f4f 9074 2867 406b 566e 5b6a 6585
000000a0: 3c6e 7b57 4187 5354 4e50 6d2f 3348 716b
000000b0: 4c6b 6d80 4841 4f7d 2385 3d5e 6475 4e62
000000c0: 414e 8798 477b 4756 7c5c 575c 3853 5c68
000000d0: 8f28 588e 6a3f 924b 7a2d ad32 4067 6a7d
000000e0: 954a 5161 8c89 b954 525e 745b 5a5c 733b
000000f0: 5f39 5866 5b46 3665 647e ac52 873f 5783

MobilenetV1/Conv2d_12_depthwise/weights_quant/FakeQuantWithMinMaxVars u1 [1, 3, 3, 128] scale=0.00945285 zero_point=125
0.056717098 0.1512456 -0.59552956 -0.70896375 0.056717098 -0.6995109 -0.59552956 0.36866114
-0.36866114 -0.0378114 -0.40647253 -0.31194404 -0.38756683 0.6806052 0.0378114 -0.46318963
0.6049824 -0.5388124 -0.45373678 -0.36866114 0.45373678 0.1512456 0.5388124 -0.16069844
0.0756228 -0.33084974 0.42537823 0.25522694 0.59552956 -0.48209533 -0.40647253 -0.5104539
-0.16069844 0.567171 -0.55771816 -0.3024912 -0.18905699 -0.43483108 -0.0756228 -0.5104539
0.37811399 0.20796269 -0.75622797 -0.5293596 0.75622797 -0.45373678 0.34975544 -0.21741554
-0.23632124 -0.23632124 -0.37811399 0.39701968 0.16069844 0.38756683 0.39701968 0.40647253
0.103981346 -0.41592538 -0.44428393 0.78458655 -0.2835855 -0.33084974 -0.028358549 -0.2835855
0.14179274 0.5104539 0.3213969 -0.5104539 -0.40647253 0.9169264 0.6616995 -0.3592083
-0.44428393 -0.34975544 -0.0756228 0.6806052 0.43483108 0.31194404 0.42537823 -0.44428393
-0.06616995 -0.567171 -0.0756228 0.8034922 0.49154818 -0.23632124 0.5766238 0.690058
0.47264248 -0.46318963 0.25522694 0.1701513 0.501001 -0.43483108 0.1701513 -0.3213969
0.33084974 0.19850984 -0.0756228 0.3592083 -0.028358549 0.78458655 0.40647253 -0.55771816
-0.6238881 0.3592083 0.3592083 -0.0189057 0.46318963 0.567171 0.27413264 -0.41592538
0.6522466 -0.40647253 0.46318963 -0.23632124 -0.44428393 -0.51990676 -0.3213969 0.39701968
0.74677515 0.1512456 0.20796269 -0.42537823 -0.36866114 -0.047264248 -0.41592538 -0.27413264
0.7373223 0.25522694 0.06616995 -0.70896375 0.1701513 -0.5388124 -0.59552956 0.3024912
-0.3592083 -0.00945285 -0.5104539 -0.3403026 -0.5482653 0.6806052 0.1701513 -0.567171
0.6144352 -0.67115235 -0.113434196 -0.44428393 0.51990676 0.29303834 0.5293596 -0.29303834
0.103981346 -0.3213969 1.2194176 0.70896375 0.44428393 -0.39701968 -0.36866114 -0.3403026
0.40647253 -0.501001 -0.46318963 -0.40647253 -0.34975544 -0.43483108 0.21741554 -0.55771816
0.6144352 0.3213969 0.20796269 -0.48209533 0.8034922 -0.67115235 0.5482653 -0.3213969
-0.34975544 -0.43483108 -0.42537823 0.55771816 0.1701513 0.45373678 0.31194404 0.690058
0.14179274 -0.49154818 -0.41592538 0.6522466 -0.2835855 -0.1512456 -0.16069844 -0.23632124
0.5293596 0.55771816 0.6616995 -0.5104539 -0.5388124 -0.028358549 0.7278694 -0.39701968
-0.39701968 -0.39701968 -0.0378114 -0.0756228 0.5860767 0.3592083 0.5860767 -0.6144352
-0.36866114 -0.5860767 -0.29303834 0.8413036 0.55771816 -0.31194404 0.75622797 0.97364354
0.16069844 -0.49154818 0.31194404 -0.1701513 0.7278694 -0.43483108 0.37811399 -0.41592538
0.5482653 0.37811399 -0.20796269 0.33084974 0.92637926 0.81294507 0.51990676 -0.70896375
-0.501001 0.63334095 0.36866114 0.36866114 0.43483108 0.6995109 0.36866114 -0.5482653
0.690058 -0.40647253 0.48209533 -0.3592083 -0.23632124 0.113434196 -0.3592083 0.690058
0.59552956 0.122887045 0.40647253 -0.6522466 -0.34975544 0.103981346 -0.5388124 -0.51990676
00000000: 838d 3e32 8333 3ea4 5679 525c 54c5 814c
00000010: bd44 4d56 ad8d b66c 855a aa98 bc4a 5247
00000020: 6cb9 425d 694f 7547 a593 2d45 cd4d a266
00000030: 6464 55a7 8ea6 a7a8 8851 4ed0 5f5a 7a5f
00000040: 8cb3 9f47 52de c357 4e58 75c5 ab9e aa4e
00000050: 7641 75d2 b164 bac6 af4c 988f b24f 8f5b
00000060: a092 75a3 7ad0 a842 3ba3 a37b aeb9 9a51
00000070: c252 ae64 4e46 5ba7 cc8d 9350 5678 5160
00000080: cb98 8432 8f44 3e9d 577c 4759 43c5 8f41
00000090: be36 714e b49c b55e 885b fec8 ac53 5659
000000a0: a848 4c52 584f 9442 be9f 934a d236 b75b
000000b0: 584f 50b8 8fad 9ec6 8c49 51c2 5f6d 6c64
000000c0: b5b8 c347 447a ca53 5353 7975 bba3 bb3c
000000d0: 563f 5ed6 b85c cde4 8e49 9e6b ca4f a551
000000e0: b7a5 67a0 dfd3 b432 48c0 a4a4 abc7 a443
000000f0: c652 b057 6489 57c6 bc8a a838 5888 4446

MobilenetV1/Conv2d_12_pointwise/weights_quant/FakeQuantWithMinMaxVars u1 [256, 1, 1, 128] scale=0.0041081537 zero_point=117
0.11913646 -0.13556908 0.041081537 0.18897507 -0.19308323 0.020540768 -0.19308323 0.0041081537
0.036973383 0.053406 0.373842 0.14789353 0.028757077 -0.07394677 0.2505974 0.25470552
0.2752463 -0.23005661 -0.1520017 0.160218 0.12324461 0.03286523 -0.041081537 0.036973383
-0.06983861 0.0 0.041081537 0.06573046 -0.20129953 0.06573046 0.106812 -0.0041081537
0.03286523 0.31632784 0.053406 0.0082163075 0.1684343 0.18897507 -0.1684343 0.061622307
0.07805492 -0.15610984 -0.07805492 0.04518969 0.17665061 -0.07805492 0.09859569 0.07805492
0.11502831 -0.024648923 -0.16432615 0.0 -0.08627123 -0.09448753 -0.28757077 0.016432615
-0.020540768 -0.036973383 0.053406 0.09448753 0.053406 0.106812 -0.0041081537 -0.13967723
0.32454413 -0.2218403 -0.08627123 0.041081537 0.07805492 -0.07394677 -0.041081537 -0.061622307
0.0082163075 0.09448753 -0.028757077 -0.057514153 -0.18897507 0.041081537 -0.09037938 0.0
-0.0041081537 0.053406 0.40259907 0.012324462 -0.08216307 -0.06573046 -0.03286523 -0.11502831
-0.049297847 -0.07805492 0.012324462 0.0 0.19308323 0.14789353 -0.14789353 0.12735276
-0.028757077 0.19719139 0.0082163075 -0.04518969 0.09037938 -0.016432615 0.11913646 -0.06573046
-0.25470552 0.020540768 -0.0082163075 0.23416476 -0.07805492 0.06983861 -0.020540768 0.028757077
-0.057514153 0.0 -0.10270385 -0.0041081537 0.06983861 0.057514153 -0.34919307 -0.028757077
-0.10270385 -0.09037938 0.13967723 0.1684343 0.23005661 0.08216307 -0.14378539 0.16432615
0.08627123 0.213624 0.09448753 0.0041081537 0.09448753 -0.061622307 0.1520017 0.0082163075
0.0 -0.08216307 -0.09859569 0.2054077 -0.23005661 -0.0041081537 -0.106812 0.08216307
0.09448753 -0.012324462 0.10270385 0.016432615 0.020540768 -0.14378539 -0.012324462 -0.028757077
0.160218 0.07394677 0.03286523 0.20129953 0.13146092 -0.053406 0.11092015 0.24238107
-0.020540768 0.049297847 -0.14378539 -0.2834626 -0.028757077 -0.0041081537 -0.1520017 0.11913646
-0.14789353 0.12324461 -0.0041081537 -0.012324462 0.13967723 0.11092015 -0.10270385 -0.18486692
-0.028757077 0.11092015 0.06983861 0.0041081537 0.016432615 -0.03286523 0.061622307 -0.020540768
-0.053406 0.14789353 0.016432615 0.1520017 0.0 0.020540768 -0.0041081537 0.24648923
-0.061622307 0.12324461 0.106812 -0.13967723 -0.024648923 0.024648923 0.12324461 0.0082163075
-0.16432615 -0.024648923 -0.024648923 0.09448753 0.0082163075 0.1684343 0.106812 0.03286523
-0.07394677 -0.06983861 0.012324462 0.0 -0.061622307 0.049297847 0.0082163075 0.04518969
-0.13967723 -0.020540768 0.09037938 -0.3040034 -0.016432615 0.053406 0.09037938 0.053406
0.106812 -0.041081537 -0.0082163075 0.028757077 -0.09859569 0.10270385 -0.24648923 0.13556908
0.06983861 -0.028757077 0.053406 -0.036973383 0.09859569 -0.036973383 -0.053406 -0.020540768
-0.057514153 0.0082163075 0.0 -0.0082163075 0.11092015 0.06573046 0.028757077 -0.11502831
0.049297847 -0.049297847 0.09037938 0.028757077 0.03286523 0.21773215 -0.03286523 0.13146092
00000000: 9254 7fa3 467a 4676 7e82 d099 7c63 b2b3
00000010: b83d 509c 937d 6b7e 6475 7f85 4485 8f74
00000020: 7dc2 8277 9ea3 4c84 884f 6280 a062 8d88
00000030: 916f 4d75 605e 2f79 706c 828c 828f 7453
00000040: c43f 607f 8863 6b66 778c 6e67 477f 5f75
00000050: 7482 d778 6165 6d59 6962 7875 a499 5194
00000060: 6ea5 776a 8b71 9265 377a 73ae 6286 707c
00000070: 6775 5c74 8683 206e 5c5f 979e ad89 529d
00000080: 8aa9 8c76 8c66 9a77 7561 5da7 3d74 5b89
00000090: 8c72 8e79 7a52 726e 9c87 7da6 9568 90b0
000000a0: 7081 5230 6e74 5092 5193 7472 9790 5c48
000000b0: 6e90 8676 796d 8470 6899 799a 757a 74b1
000000c0: 6693 8f53 6f7b 9377 4d6f 6f8c 779e 8f7d
000000d0: 6364 7875 6681 7780 5370 8b2b 7182 8b82
000000e0: 8f6b 737c 5d8e 3996 866e 826c 8d6c 6870
000000f0: 6777 7573 9085 7c59 8169 8b7c 7daa 6d95

MobilenetV1/Conv2d_13_depthwise/weights_quant/FakeQuantWithMinMaxVars u1 [1, 3, 3, 256] scale=0.04754148 zero_point=120
0.04754148 0.38033184 -0.99837106 -1.6639519 -2.3295326 -0.28524888 -0.57049775 0.99837106
-1.6639519 -0.04754148 -2.1393666 -0.66558075 -0.4754148 -0.66558075 -0.4754148 -0.4278733
-0.4754148 -0.28524888 0.09508296 -0.99837106 -0.8557466 0.09508296 -0.28524888 -1.3311615
0.19016592 0.7131222 0.28524888 0.66558075 -0.8082052 -1.093454 1.5688689 0.7606637
-0.09508296 -0.2377074 0.8557466 -0.4278733 -0.9032881 -0.4278733 -0.2377074 0.2377074
-0.38033184 0.8082052 -0.61803925 -0.57049775 -0.2377074 -1.4262444 1.0459126 1.0459126
-0.2377074 -0.14262444 -0.2377074 -0.7606637 -0.14262444 1.4262444 0.66558075 3.4705281
-0.09508296 -0.7606637 -1.8541178 -0.5229563 -0.57049775 -1.4262444 -0.09508296 -1.5213274
0.57049775 -0.14262444 -1.9016593 -1.8541178 -0.09508296 -0.9508296 -0.57049775 0.33279037
-0.04754148 -0.4278733 -0.99837106 -0.8082052 -0.57049775 -0.4278733 -0.28524888 -0.5229563
-0.33279037 -0.57049775 0.5229563 -0.09508296 -0.09508296 -0.8082052 0.28524888 -0.04754148
-0.57049775 0.8557466 0.28524888 -0.38033184 -1.0459126 0.57049775 -0.09508296 -0.9032881
-1.4737859 -0.5229563 0.09508296 -0.4754148 -0.04754148 0.8082052 -0.33279037 -0.5229563
0.14262444 -1.188537 0.9032881 -0.9032881 0.33279037 2.0442836 2.0918252 -0.66558075
-1.093454 0.9508296 0.4754148 -1.1409955 -0.33279037 0.61803925 0.09508296 -0.4278733
-0.4278733 -0.7606637 -0.66558075 -0.61803925 0.33279037 -0.28524888 -0.7131222 -0.8082052
-1.3787029 -0.66558075 0.61803925 -1.188537 -0.8557466 -1.093454 -0.33279037 -0.04754148
-1.0459126 -0.14262444 -0.7606637 -0.57049775 0.61803925 -0.28524888 -0.7606637 -0.66558075
-0.4278733 -1.9016593 -0.19016592 -1.3311615 -0.7606637 0.2377074 0.38033184 -1.4262444
0.28524888 -1.0459126 -0.61803925 -0.99837106 -1.4737859 0.04754148 0.57049775 0.2377074
0.8082052 1.4737859 0.61803925 -0.57049775 -0.2377074 -1.093454 -1.188537 0.2377074
-1.28362 0.61803925 0.28524888 -0.9032881 0.09508296 -0.4278733 0.04754148 -0.8557466
0.09508296 0.14262444 -0.5229563 0.61803925 -1.6164104 0.0 0.66558075 0.09508296
-0.5229563 0.14262444 0.7606637 -1.093454 -0.33279037 -0.38033184 -1.7114933 -0.57049775
-0.9508296 -0.8557466 1.4737859 -1.6639519 -0.4754148 -0.61803925 -0.09508296 1.3311615
0.4278733 0.28524888 -0.8557466 -0.5229563 -1.4262444 -1.4737859 2.7098644 -1.9016593
-1.093454 -0.9032881 -0.5229563 -0.38033184 0.99837106 -0.14262444 -0.28524888 -0.8557466
-0.61803925 0.8082052 0.61803925 -1.188537 -0.7606637 2.5196984 -0.9032881 -0.66558075
0.0 -0.8557466 -1.0459126 -0.19016592 -0.4754148 -0.4754148 0.66558075 1.2360785
-0.9032881 -0.33279037 -0.33279037 0.09508296 -0.66558075 -0.5229563 -0.04754148 -1.28362
0.7131222 0.14262444 -0.09508296 -0.57049775 -0.4754148 -1.093454 -0.2377074 -0.4278733
-2.1393666 -1.188537 -0.5229563 0.7606637 -1.1409955 -0.99837106 -0.5229563 -0.7131222
00000000: 7980 6355 4772 6c8d 5577 4b6a 6e6a 6e6f
00000010: 6e72 7a63 667a 725c 7c87 7e86 6761 9988
00000020: 7673 8a6f 656f 737d 7089 6b6c 735a 8e8e
00000030: 7375 7368 7596 86c1 7668 516d 6c5a 7658
00000040: 8475 5051 7664 6c7f 776f 6367 6c6f 726d
00000050: 716c 8376 7667 7e77 6c8a 7e70 6284 7665
00000060: 596d 7a6e 7789 716d 7b5f 8b65 7fa3 a46a
00000070: 618c 8260 7185 7a6f 6f68 6a6b 7f72 6967
00000080: 5b6a 855f 6661 7177 6275 686c 8572 686a
00000090: 6f50 745c 687d 805a 7e62 6b63 5979 847d
000000a0: 8997 856c 7361 5f7d 5d85 7e65 7a6f 7966
000000b0: 7a7b 6d85 5678 867a 6d7b 8861 7170 546c
000000c0: 6466 9755 6e6b 7694 817e 666d 5a59 b150
000000d0: 6165 6d70 8d75 7266 6b89 855f 68ad 656a
000000e0: 7866 6274 6e6e 8692 6571 717a 6a6d 775d
000000f0: 877b 766c 6e61 736f 4b5f 6d88 6063 6d69

MobilenetV1/Conv2d_13_pointwise/weights_quant/FakeQuantWithMinMaxVars u1 [256, 1, 1, 256] scale=0.004574604 zero_point=146
-0.02287302 -0.018298415 -0.004574604 0.004574604 -0.03659683 0.03659683 -0.018298415 0.027447622
-0.05946985 0.004574604 0.013723811 -0.032022227 0.0 -0.018298415 0.032022227 0.013723811
-0.02287302 -0.03659683 -0.032022227 -0.004574604 0.027447622 0.009149208 -0.027447622 0.054895245
-0.013723811 -0.02287302 0.009149208 -0.03659683 0.004574604 0.032022227 -0.02287302 -0.041171435
-0.03659683 -0.032022227 0.004574604 -0.027447622 0.027447622 -0.054895245 -0.041171435 -0.054895245
-0.027447622 -0.02287302 -0.013723811 -0.018298415 0.013723811 -0.009149208 -0.03659683 -0.027447622
-0.032022227 -0.009149208 -0.027447622 -0.03659683 -0.041171435 -0.009149208 0.018298415 0.009149208
-0.027447622 -0.027447622 0.05946985 0.032022227 -0.009149208 -0.013723811 -0.02287302 -0.018298415
0.0 -0.04574604 0.013723811 0.0 -0.041171435 -0.02287302 0.04574604 -0.04574604
0.032022227 -0.027447622 0.0 0.004574604 -0.027447622 0.04574604 -0.041171435 -0.009149208
-0.009149208 -0.027447622 -0.02287302 -0.004574604 0.004574604 -0.04574604 -0.02287302 -0.03659683
0.018298415 -0.018298415 -0.004574604 -0.03659683 -0.018298415 -0.027447622 0.0 0.013723811
0.032022227 -0.032022227 0.054895245 -0.018298415 -0.03659683 -0.004574604 -0.02287302 0.018298415
-0.041171435 -0.02287302 -0.032022227 -0.013723811 -0.018298415 0.004574604 -0.018298415 -0.013723811
0.018298415 0.032022227 0.004574604 0.004574604 -0.03659683 0.013723811 -0.013723811 -0.009149208
0.0 0.041171435 0.009149208 -0.018298415 0.02287302 -0.013723811 -0.050320644 0.013723811
-0.013723811 0.05946985 -0.013723811 0.0 -0.032022227 0.07319366 -0.009149208 -0.02287302
-0.054895245 0.027447622 0.013723811 -0.004574604 0.0 -0.041171435 0.041171435 -0.02287302
0.0 0.004574604 0.032022227 -0.013723811 -0.032022227 -0.032022227 -0.06404445 -0.013723811
0.013723811 0.050320644 -0.013723811 -0.027447622 0.004574604 -0.032022227 -0.032022227 -0.041171435
0.004574604 -0.013723811 -0.004574604 -0.03659683 -0.03659683 -0.013723811 0.0 0.009149208
-0.032022227 -0.054895245 -0.03659683 -0.027447622 0.027447622 0.0 -0.004574604 -0.054895245
-0.004574604 0.02287302 -0.02287302 -0.03659683 -0.041171435 -0.03659683 -0.018298415 0.004574604
0.004574604 -0.018298415 -0.004574604 -0.013723811 -0.02287302 -0.013723811 -0.013723811 -0.02287302
0.009149208 0.032022227 -0.009149208 -0.004574604 0.032022227 0.004574604 -0.03659683 -0.050320644
-0.02287302 0.009149208 -0.03659683 -0.02287302 0.009149208 -0.027447622 0.004574604 -0.027447622
-0.009149208 0.0 0.004574604 -0.027447622 0.009149208 0.009149208 -0.04574604 0.018298415
-0.02287302 -0.009149208 -0.027447622 -0.027447622 -0.018298415 0.04574604 -0.013723811 0.009149208
0.004574604 0.0 0.004574604 -0.04574604 -0.041171435 -0.018298415 -0.004574604 -0.013723811
0.009149208 0.004574604 -0.027447622 -0.032022227 -0.04574604 -0.032022227 -0.03659683 -0.027447622
-0.02287302 -0.02287302 0.004574604 0.0 -0.050320644 -0.02287302 -0.04574604 -0.03659683
0.018298415 -0.02287302 -0.032022227 -0.018298415 0.03659683 -0.02287302 0.004574604 -0.018298415
00000000: 8d8e 9193 8a9a 8e98 8593 958b 928e 9995
00000010: 8d8a 8b91 9894 8c9e 8f8d 948a 9399 8d89
00000020: 8a8b 938c 9886 8986 8c8d 8f8e 9590 8a8c
00000030: 8b90 8c8a 8990 9694 8c8c 9f99 908f 8d8e
00000040: 9288 9592 898d 9c88 998c 9293 8c9c 8990
00000050: 908c 8d91 9388 8d8a 968e 918a 8e8c 9295
00000060: 998b 9e8e 8a91 8d96 898d 8b8f 8e93 8e8f
00000070: 9699 9393 8a95 8f90 929b 948e 978f 8795
00000080: 8f9f 8f92 8ba2 908d 8698 9591 9289 9b8d
00000090: 9293 998f 8b8b 848f 959d 8f8c 938b 8b89
000000a0: 938f 918a 8a8f 9294 8b86 8a8c 9892 9186
000000b0: 9197 8d8a 898a 8e93 938e 918f 8d8f 8f8d
000000c0: 9499 9091 9993 8a87 8d94 8a8d 948c 938c
000000d0: 9092 938c 9494 8896 8d90 8c8c 8e9c 8f94
000000e0: 9392 9388 898e 918f 9493 8c8b 888b 8a8c
000000f0: 8d8d 9392 878d 888a 968d 8b8e 9a8d 938e

MobilenetV1/Conv2d_1_depthwise/weights_quant/FakeQuantWithMinMaxVars u1 [1, 3, 3, 8] scale=0.4740436 zero_point=126
-0.4740436 1.8961744 5.2144794 0.4740436 0.0 0.0 0.0 0.0
0.0 -1.8961744 -39.34562 0.4740436 0.0 0.0 0.0 -0.4740436
0.0 0.0 -43.13797 0.4740436 0.0 0.0 0.0 0.0
1.8961744 0.4740436 61.151627 0.0 -2.8442616 0.0 0.0 0.0
0.0 -0.4740436 -53.092884 0.0 -0.4740436 -1.8961744 0.9480872 -0.4740436
-0.4740436 0.0 -18.961744 -0.4740436 3.3183053 1.8961744 0.0 0.0
-0.4740436 0.0 -40.293705 0.4740436 0.0 0.0 0.0 0.0
0.0 0.0 -59.25545 0.4740436 0.0 0.0 -0.4740436 0.4740436
0.0 0.0 -29.864748 0.4740436 0.0 0.0 0.0 0.0
00000000: 7d82 897f 7e7e 7e7e 7e7a 2b7f 7e7e 7e7d
00000010: 7e7e 237f 7e7e 7e7e 827f ff7e 787e 7e7e
00000020: 7e7d 0e7e 7d7a 807d 7d7e 567d 8582 7e7e
00000030: 7d7e 297f 7e7e 7e7e 7e7e 017f 7e7e 7d7f
00000040: 7e7e 3f7f 7e7e 7e7e

MobilenetV1/Conv2d_1_pointwise/weights_quant/FakeQuantWithMinMaxVars u1 [16, 1, 1, 8] scale=0.012277677 zero_point=126
-0.2087205 0.0 0.0 0.0 -0.22099818 0.25783122 0.19644283 0.417441
0.6875499 0.024555353 0.0 0.0 0.17188747 -0.049110707 -0.061388385 1.0681579
0.19644283 0.03683303 0.0 0.0 0.12277677 -0.17188747 -0.098221414 -0.46655172
0.012277677 -0.8962704 0.0 0.0 0.13505444 0.60160613 -0.061388385 -0.024555353
0.049110707 1.5838203 0.0 0.0 0.13505444 0.61388385 -0.049110707 -0.049110707
0.049110707 0.14733212 0.0 0.0 0.061388385 -0.69982755 0.7857713 0.049110707
0.11049909 0.18416515 0.0 0.0 0.8471597 -1.0313249 -0.12277677 0.03683303
-0.061388385 -0.024555353 0.0 0.0 -0.098221414 0.12277677 -0.085943736 -0.29466423
0.012277677 0.11049909 0.0 0.0 -0.798049 0.9944918 -0.12277677 -0.12277677
0.03683303 0.085943736 0.0 0.0 -0.012277677 0.07366606 1.21549 0.03683303
0.13505444 0.024555353 0.0 0.0 0.012277677 0.0 0.03683303 -0.49110708
0.35605264 -0.049110707 0.0 0.0 0.0 -0.012277677 -0.03683303 -0.6384392
-0.13505444 -0.03683303 0.0 0.0 -0.012277677 -0.024555353 -0.024555353 0.798049
0.085943736 -0.14733212 0.0 0.0 -0.3683303 -1.5347096 -0.049110707 0.17188747
-0.085943736 0.012277677 0.0 0.0 -0.061388385 0.085943736 0.061388385 0.22099818
-0.2087205 -0.024555353 0.0 0.0 -0.14733212 0.25783122 -0.11049909 -0.3192196
00000000: 6d7e 7e7e 6c93 8ea0 b680 7e7e 8c7a 79d5
00000010: 8e81 7e7e 8870 7658 7f35 7e7e 89af 797c
00000020: 82ff 7e7e 89b0 7a7a 828a 7e7e 8345 be82
00000030: 878d 7e7e c32a 7481 797c 7e7e 7688 7766
00000040: 7f87 7e7e 3dcf 7474 8185 7e7e 7d84 e181
00000050: 8980 7e7e 7f7e 8156 9b7a 7e7e 7e7d 7b4a
00000060: 737b 7e7e 7d7c 7cbf 8572 7e7e 6001 7a8c
00000070: 777f 7e7e 7985 8390 6d7c 7e7e 7293 7564

MobilenetV1/Conv2d_2_depthwise/weights_quant/FakeQuantWithMinMaxVars u1 [1, 3, 3, 16] scale=0.022977391 zero_point=152
-0.5514574 0.16084173 0.34466088 -0.16084173 -0.091909565 0.20679653 0.091909565 1.2867339
0.16084173 -0.16084173 0.85016346 -0.16084173 -0.091909565 0.16084173 1.4935304 -0.091909565
0.57443476 0.16084173 0.41359305 -0.22977391 -0.20679653 0.36763826 0.18381913 0.91909564
0.16084173 -0.2527513 2.3666713 -0.22977391 0.29870608 0.2757287 1.470553 1.4016209
0.36763826 0.068932176 -0.36763826 -0.068932176 -0.114886954 0.20679653 0.114886954 -1.5394852
0.068932176 -0.16084173 1.5394852 -0.045954783 0.18381913 0.114886954 -1.4475757 0.022977391
0.2757287 0.091909565 1.1258922 -0.2757287 -0.2527513 0.34466088 0.16084173 -1.5165079
0.20679653 -0.32168347 -0.91909564 -0.2527513 -0.43657044 0.2527513 1.3097113 -1.1948243
0.8731409 0.13786435 -0.5514574 -0.52848 -0.5055026 0.45954782 0.32168347 1.1488695
0.34466088 -0.48252523 -2.3666713 -0.36763826 -1.5624626 0.32168347 -3.4695861 -0.29870608
-0.7122991 0.068932176 -0.59741217 -0.2757287 -0.2527513 0.2757287 0.16084173 0.7812313
0.16084173 -0.29870608 -1.6084174 -0.13786435 -0.9880278 0.13786435 0.29870608 0.64336693
0.41359305 0.068932176 0.48252523 -0.068932176 -0.20679653 0.16084173 0.045954783 -0.2527513
0.091909565 -0.16084173 -0.13786435 -0.114886954 0.5514574 0.091909565 -0.94207305 1.0799373
-0.8042087 0.091909565 -0.8042087 -0.32168347 -0.32168347 0.18381913 0.18381913 -1.6313947
0.13786435 -0.22977391 0.13786435 -0.20679653 1.3326887 0.114886954 -0.18381913 -1.1948243
-0.22977391 0.045954783 0.045954783 -0.29870608 -0.13786435 0.068932176 0.091909565 0.85016346
0.091909565 -0.068932176 0.068932176 -0.114886954 0.7122991 0.045954783 1.4245982 -0.5514574
00000000: 809f a791 94a1 9cd0 9f91 bd91 949f d994
00000010: b19f aa8e 8fa8 a0c0 9f8d ff8e a5a4 d8d5
00000020: a89b 8895 93a1 9d55 9b91 db96 a09d 5999
00000030: a49c c98c 8da7 9f56 a18a 708d 85a3 d164
00000040: be9e 8081 82ac a6ca a783 3188 54a6 018b
00000050: 799b 7e8c 8da4 9fba 9f8b 5292 6d9e a5b4
00000060: aa9b ad95 8f9f 9a8d 9c91 9293 b09c 6fc7
00000070: 759c 758a 8aa0 a051 9e8e 9e8f d29d 9064
00000080: 8e9a 9a8b 929b 9cbd 9c95 9b93 b79a d680

MobilenetV1/Conv2d_2_pointwise/weights_quant/FakeQuantWithMinMaxVars u1 [32, 1, 1, 16] scale=0.011306188 zero_point=117
-0.011306188 0.022612376 0.011306188 -0.033918563 -0.11306188 0.06783713 0.21481757 0.06783713
-0.32787946 0.045224752 -0.11306188 0.8479641 -0.10175569 0.15828663 -0.06783713 -0.06783713
0.05653094 -0.2713485 0.11306188 0.42963514 0.4635537 0.045224752 0.06783713 0.022612376
0.022612376 0.20351139 -0.15828663 0.31657326 -0.045224752 -0.42963514 -0.06783713 -0.011306188
0.06783713 0.6783713 0.0 -0.30526707 -0.32787946 0.033918563 0.090449505 -0.090449505
0.2939609 -0.32787946 0.20351139 -0.4635537 0.13567425 0.4635537 0.079143316 0.11306188
0.079143316 0.0 0.20351139 0.10175569 0.41832897 0.14698045 1.4698044 0.19220519
0.36179802 0.2939609 0.022612376 -0.2713485 -0.033918563 -0.31657326 0.12436807 -0.15828663
0.32787946 0.0 0.011306188 0.079143316 -0.022612376 -0.542697 0.21481757 0.033918563
0.24873614 -0.5879218 0.2826547 0.20351139 0.14698045 0.22612377 0.30526707 -0.079143316
-0.045224752 0.31657326 -0.11306188 -0.3731042 -0.21481757 0.079143316 0.022612376 -0.090449505
0.44094133 -0.022612376 0.19220519 -0.31657326 0.14698045 0.090449505 -0.022612376 0.045224752
-0.26004234 -0.24873614 -0.14698045 0.30526707 0.20351139 0.33918566 -0.59922796 0.05653094
-0.76882076 0.022612376 0.12436807 -0.13567425 0.011306188 -0.22612377 -0.18089901 -0.033918563
0.8479641 0.011306188 -0.50877845 0.14698045 0.31657326 -0.39571658 0.22612377 0.22612377
0.06783713 -0.045224752 -0.542697 -0.05653094 -0.23742995 -0.20351139 0.9949446 0.033918563
-0.033918563 0.06783713 0.033918563 1.1532311 1.0514755 -0.12436807 0.045224752 0.090449505
0.011306188 -0.22612377 0.05653094 -0.079143316 0.06783713 -1.3115178 -0.045224752 -0.022612376
-0.12436807 -0.542697 -0.05653094 0.22612377 0.16959283 -0.15828663 -0.10175569 0.079143316
-0.19220519 0.06783713 -0.12436807 -0.30526707 -0.05653094 -0.23742995 -0.15828663 -0.05653094
-0.022612376 0.05653094 -0.022612376 -0.33918566 -0.06783713 -0.06783713 0.045224752 0.05653094
0.53139085 0.45224753 -0.42963514 0.35049182 -0.3731042 0.011306188 -0.045224752 -0.05653094
0.11306188 0.2939609 0.11306188 -0.33918566 -0.22612377 -0.19220519 0.4748599 -0.11306188
0.42963514 1.2549869 -1.0514755 0.079143316 -1.1984559 0.32787946 -0.05653094 0.011306188
0.38441038 0.10175569 0.81404555 0.2939609 0.36179802 -0.9497198 -0.36179802 0.0
0.44094133 -0.38441038 -0.19220519 -0.022612376 -0.42963514 -0.30526707 -0.5653094 -0.05653094
0.45224753 -0.079143316 0.32787946 0.23742995 0.4635537 0.19220519 -0.26004234 -0.41832897
-0.15828663 -0.11306188 1.560254 -0.12436807 1.4245797 -0.5653094 0.3731042 0.41832897
-0.079143316 -0.21481757 -0.06783713 0.10175569 0.045224752 -0.022612376 0.11306188 0.045224752
-0.045224752 0.0 -0.022612376 -0.5200847 0.033918563 -0.090449505 -0.05653094 -0.045224752
0.022612376 0.13567425 0.090449505 -0.23742995 -0.23742995 -0.045224752 0.20351139 -0.10175569
0.35049182 -0.11306188 -0.033918563 0.079143316 0.045224752 0.33918566 -0.022612376 0.0
00000000: 7477 7672 6b7b 887b 5879 6bc0 6c83 6f6f
00000010: 7a5d 7f9b 9e79 7b77 7787 6791 714f 6f74
00000020: 7bb1 755a 5878 7d6d 8f58 874c 819e 7c7f
00000030: 7c75 877e 9a82 f786 958f 775d 7259 8067
00000040: 9275 767c 7345 8878 8b41 8e87 8289 906e
00000050: 7191 6b54 627c 776d 9c73 8659 827d 7379
00000060: 5e5f 6890 8793 407a 3177 8069 7661 6572
00000070: c076 4882 9152 8989 7b71 4570 6063 cd78
00000080: 727b 78db d26a 797d 7661 7a6e 7b01 7173
00000090: 6a45 7089 8467 6c7c 647b 6a5a 7060 6770
000000a0: 737a 7357 6f6f 797a a49d 4f94 5476 7170
000000b0: 7f8f 7f57 6164 9f6b 9be4 187c 0b92 7076
000000c0: 977e bd8f 9521 5575 9c53 6473 4f5a 4370
000000d0: 9d6e 928a 9e86 5e50 676b ff6a f343 969a
000000e0: 6e62 6f7e 7973 7f79 7175 7347 786d 7071
000000f0: 7781 7d60 6071 876c 946b 727c 7993 7375

MobilenetV1/Conv2d_3_depthwise/weights_quant/FakeQuantWithMinMaxVars u1 [1, 3, 3, 32] scale=0.022649728 zero_point=129
-0.045299456 -0.11324864 0.22649728 -0.06794918 0.20384756 0.8833394 0.4076951 0.79274046
-0.3397459 0.13589837 0.022649728 -0.11324864 1.5628312 -0.15854809 -0.15854809 1.1324863
1.0192378 0.4076951 -0.18119782 0.09059891 0.18119782 0.45299456 -0.022649728 0.63419235
-0.4756443 -0.27179673 0.4756443 -0.11324864 -0.18119782 0.63419235 -0.06794918 -1.7213793
-0.4076951 0.022649728 -0.45299456 -0.18119782 -0.249147 -2.332922 -0.4076951 -0.31709617
0.27179673 0.0 0.249147 -1.336334 -1.4722323 -0.43034482 0.61154264 1.834628
-0.15854809 -0.3397459 0.8833394 -0.498294 1.0418875 -0.022649728 -0.54359347 0.6568421
2.6500182 0.15854809 -0.79274046 0.29444647 -0.86068964 1.5628312 -0.6794918 1.2910345
0.22649728 -0.20384756 0.06794918 0.0 -0.06794918 0.18119782 0.0 -0.06794918
-0.43034482 0.022649728 -0.15854809 0.022649728 0.022649728 0.06794918 -0.06794918 -0.4756443
-0.249147 0.29444647 -0.52094376 0.249147 -0.13589837 -0.61154264 0.13589837 -0.4756443
0.29444647 0.15854809 0.15854809 -0.06794918 0.13589837 0.36239564 0.022649728 0.15854809
0.36239564 -0.4076951 1.0645372 -0.43034482 -0.43034482 -0.20384756 0.58889294 -0.4756443
-0.09059891 -0.09059891 0.3397459 0.31709617 -2.1743739 -0.22649728 0.249147 -0.52094376
-0.09059891 -1.245735 0.45299456 0.36239564 0.45299456 0.6794918 -0.3397459 0.11324864
0.29444647 -0.58889294 1.3589836 0.5662432 0.11324864 -0.61154264 0.09059891 1.1551361
-0.77009076 1.9705263 -0.54359347 -0.52094376 -1.0871869 2.1064246 -0.31709617 0.58889294
2.8538656 1.6081307 0.9739383 0.20384756 1.744029 -0.38504538 -1.834628 -2.8991652
-0.3397459 -2.5594192 2.1970236 -1.4269328 0.7021416 0.22649728 -0.86068964 0.6568421
-2.400871 0.045299456 -1.8799274 0.83803993 -0.5662432 -1.245735 0.498294 0.7247913
-0.45299456 -0.9059891 -0.249147 0.06794918 0.27179673 -0.54359347 0.4756443 0.3397459
-0.6568421 -0.09059891 0.022649728 0.20384756 0.045299456 0.045299456 -0.20384756 0.13589837
-0.15854809 -0.11324864 -0.13589837 0.9286388 0.06794918 -0.9739383 0.09059891 0.27179673
-0.498294 0.4076951 0.8153902 0.20384756 0.36239564 -0.45299456 0.0 -1.1777859
0.0 -0.20384756 -0.045299456 0.09059891 0.15854809 -0.77009076 -0.11324864 0.045299456
-0.4076951 -0.22649728 -0.18119782 0.13589837 0.022649728 -0.022649728 -0.20384756 -0.4076951
-0.9286388 0.249147 -0.45299456 0.09059891 -0.38504538 0.06794918 -0.022649728 -0.15854809
0.36239564 0.022649728 0.38504538 -0.13589837 0.13589837 0.0 -0.13589837 0.4076951
0.3397459 -0.09059891 0.045299456 0.11324864 0.15854809 0.20384756 -0.43034482 0.36239564
-0.27179673 -1.336334 -0.249147 -0.36239564 0.22649728 -0.15854809 -0.20384756 0.38504538
0.43034482 -0.45299456 -1.1777859 -0.22649728 -0.4076951 -0.20384756 0.249147 0.06794918
-0.27179673 -0.09059891 -0.4076951 -0.4076951 -0.13589837 -0.13589837 0.77009076 -1.3136842
00000000: 7f7c 8b7e 8aa8 93a4 7287 827c c67a 7ab3
00000010: ae93 7985 8995 809d 6c75 967c 799d 7e35
00000020: 6f82 6d79 761a 6f73 8d81 8c46 406e 9cd2
00000030: 7a72 a86b af80 699e f688 5e8e 5bc6 63ba
00000040: 8b78 8481 7e89 817e 6e82 7a82 8284 7e6c
00000050: 768e 6a8c 7b66 876c 8e88 887e 8791 8288
00000060: 916f b06e 6e78 9b6c 7d7d 908f 2177 8c6a
00000070: 7d4a 9591 959f 7286 8e67 bd9a 8666 85b4
00000080: 5fd8 696a 51de 739b ffc8 ac8a ce70 3001
00000090: 7210 e242 a08b 5b9e 1783 2ea6 684a 97a1
000000a0: 6d59 7684 8d69 9690 647d 828a 8383 7887
000000b0: 7a7c 7baa 8456 858d 6b93 a58a 916d 814d
000000c0: 8178 7f85 885f 7c83 6f77 7987 8280 786f
000000d0: 588c 6d85 7084 807a 9182 927b 8781 7b93
000000e0: 907d 8386 888a 6e91 7546 7671 8b7a 7892
000000f0: 946d 4d77 6f78 8c84 757d 6f6f 7b7b a347

MobilenetV1/Conv2d_3_pointwise/weights_quant/FakeQuantWithMinMaxVars u1 [32, 1, 1, 32] scale=0.012786288 zero_point=79
-0.038358863 0.16622174 0.038358863 0.25572574 0.17900804 0.24293947 0.012786288 0.0
0.08950402 0.5370241 -0.012786288 -0.5242378 -0.2045806 0.12786287 -0.35801607 -0.24293947
0.17900804 -0.26851204 0.07671773 -0.1022903 0.11507659 0.025572576 0.17900804 -0.2045806
-0.24293947 -0.012786288 0.012786288 -0.23015317 0.44752008 0.7288184 0.5625967 -0.28129834
0.24293947 -0.5625967 -0.5881692 -0.35801607 -0.063931435 0.12786287 0.7288184 -0.08950402
-0.46030635 -0.11507659 0.38358864 0.2045806 -0.038358863 -0.14064917 0.24293947 -0.16622174
-0.07671773 -0.23015317 -0.23015317 0.5114515 -0.38358864 0.25572574 0.0 -0.12786287
0.1022903 0.47309265 0.5625967 0.2940846 0.23015317 -0.038358863 0.24293947 0.37080234
0.4091612 -0.025572576 -0.025572576 0.05114515 0.025572576 0.0 0.025572576 0.07671773
-0.05114515 0.07671773 -0.25572574 -0.038358863 -0.012786288 0.038358863 -0.12786287 0.17900804
-0.012786288 -0.1022903 0.08950402 -0.16622174 -0.1022903 0.0 -0.05114515 0.05114515
0.012786288 0.1022903 -0.21736689 0.69045955 0.012786288 -0.038358863 0.3963749 0.038358863
0.5114515 0.17900804 0.012786288 -0.17900804 0.038358863 0.025572576 0.08950402 -0.025572576
0.025572576 -0.038358863 -0.48587894 0.7288184 0.1022903 -0.038358863 0.14064917 -0.05114515
0.012786288 0.21736689 -0.3963749 -0.12786287 0.25572574 -0.15343545 0.0 0.16622174
0.16622174 0.16622174 0.0 -0.15343545 -0.2940846 0.5242378 0.21736689 -0.038358863
0.23015317 0.1022903 0.6521007 0.26851204 0.063931435 0.25572574 -0.33244348 -0.038358863
0.28129834 0.21736689 0.17900804 -0.07671773 -0.05114515 0.0 -0.19179432 0.025572576
0.0 -0.025572576 0.25572574 -0.3196572 -0.11507659 -0.05114515 0.12786287 -0.14064917
-0.07671773 0.48587894 0.26851204 -0.1022903 -0.063931435 -0.1022903 -0.063931435 0.11507659
0.14064917 -0.19179432 -0.1022903 -0.038358863 -0.12786287 0.2940846 0.21736689 -0.012786288
-0.2940846 -0.08950402 0.07671773 -0.17900804 -0.012786288 -0.07671773 0.5881692 -0.16622174
0.012786288 0.038358863 -0.16622174 0.25572574 -0.038358863 0.0 0.063931435 0.012786288
-0.025572576 -0.6521007 -0.1022903 -0.25572574 -0.08950402 -0.16622174 -0.37080234 0.33244348
0.12786287 0.025572576 -0.2045806 -0.14064917 0.9717579 0.3963749 0.012786288 -0.25572574
-0.08950402 -0.025572576 0.2045806 -0.025572576 -0.14064917 0.23015317 0.1022903 0.025572576
-0.012786288 -0.17900804 -0.2045806 -0.025572576 -0.15343545 0.07671773 -0.6776733 0.4986652
-0.2045806 0.08950402 -0.11507659 -0.43473378 0.16622174 -0.063931435 -0.025572576 -0.11507659
0.07671773 0.23015317 0.12786287 0.11507659 0.25572574 -0.012786288 0.12786287 -0.07671773
0.07671773 1.3297739 -0.24293947 -0.025572576 -0.19179432 0.025572576 -0.23015317 0.025572576
-0.33244348 -0.025572576 0.33244348 -0.3963749 0.05114515 -0.038358863 0.063931435 -0.25572574
-0.12786287 -0.08950402 -0.35801607 -0.35801607 0.21736689 -0.4091612 -0.16622174 -0.038358863
00000000: 4c5c 5263 5d62 504f 5679 4e26 3f59 333c
00000010: 5d3a 5547 5851 5d3f 3c4e 503d 7288 7b39
00000020: 6223 2133 4a59 8848 2b46 6d5f 4c44 6242
00000030: 493d 3d77 3163 4f45 5774 7b66 614c 626c
00000040: 6f4d 4d53 514f 5155 4b55 3b4c 4e52 455d
00000050: 4e47 5642 474f 4b53 5057 3e85 504c 6e52
00000060: 775d 5041 5251 564d 514c 2988 574c 5a4b
00000070: 5060 3045 6343 4f5c 5c5c 4f43 3878 604c
00000080: 6157 8264 5463 354c 6560 5d49 4b4f 4051
00000090: 4f4d 6336 464b 5944 4975 6447 4a47 4a58
000000a0: 5a40 474c 4566 604e 3848 5541 4e49 7d42
000000b0: 5052 4263 4c4f 5450 4d1c 473b 4842 3269
000000c0: 5951 3f44 9b6e 503b 484d 5f4d 4461 5751
000000d0: 4e41 3f4d 4355 1a76 3f56 462d 5c4a 4d46
000000e0: 5561 5958 634e 5949 55b7 3c4d 4051 3d51
000000f0: 354d 6930 534c 543b 4548 3333 602f 424c

MobilenetV1/Conv2d_4_depthwise/weights_quant/FakeQuantWithMinMaxVars u1 [1, 3, 3, 32] scale=0.010893986 zero_point=162
0.28324363 0.1525158 -0.17430377 0.2287737 0.17430377 0.28324363 0.3159256 0.28324363
0.2941376 -0.09804587 0.21787971 0.40307748 -0.16340978 -0.065363914 -0.18519776 0.2941376
0.17430377 0.5338053 -0.17430377 0.19609174 -0.19609174 0.21787971 0.20698573 0.39218348
-0.17430377 -0.14162181 -0.11983384 0.35950154 0.25056165 0.27234966 -0.17430377 -0.33771354
0.34860754 0.2287737 -0.21787971 0.3050316 0.3050316 0.34860754 0.5229113 0.38128948
0.2941376 -0.11983384 0.21787971 0.5991692 -0.13072783 -0.20698573 -0.2287737 0.35950154
0.3050316 -1.7539316 -0.27234966 0.34860754 -0.26145566 0.21787971 0.32681957 0.4575474
-0.3050316 -0.21787971 -0.17430377 -0.05446993 0.35950154 0.35950154 -0.21787971 -0.39218348
0.10893986 0.087151885 -0.0762579 0.11983384 0.18519776 0.18519776 0.2941376 0.14162181
0.065363914 -0.043575943 0.09804587 0.3050316 -0.043575943 -0.19609174 -0.087151885 0.18519776
0.18519776 -0.25056165 -0.1525158 0.21787971 -0.10893986 0.09804587 0.19609174 0.21787971
-0.11983384 -0.09804587 -0.087151885 -0.2941376 0.16340978 0.10893986 -0.10893986 -0.25056165
0.46844137 0.19609174 -0.25056165 0.39218348 0.27234966 0.41397145 0.46844137 0.3703955
0.28324363 -0.18519776 0.3050316 -0.1525158 -0.18519776 -0.20698573 -0.2941376 0.4575474
0.3050316 1.0131407 -0.21787971 0.33771354 -0.33771354 0.3159256 0.34860754 0.44665343
-0.3159256 -0.2287737 -0.2287737 0.56648725 0.28324363 0.34860754 -0.26145566 -0.38128948
0.5882752 0.33771354 -0.3159256 0.5991692 0.4575474 0.6209572 0.6972151 0.4575474
0.39218348 -0.2287737 0.39218348 -0.087151885 -0.20698573 -0.27234966 -0.41397145 0.5338053
0.5011233 -0.89330685 -0.3050316 0.5011233 -0.42486542 0.38128948 0.43575943 0.57738125
-0.42486542 -0.33771354 -0.3050316 -0.05446993 0.44665343 0.5011233 -0.33771354 -0.43575943
0.16340978 0.14162181 -0.11983384 0.2287737 0.27234966 0.3159256 0.3050316 0.17430377
0.16340978 -0.09804587 0.16340978 -0.05446993 -0.10893986 -0.11983384 -0.17430377 0.20698573
0.2287737 -0.25056165 -0.14162181 0.2287737 -0.20698573 0.16340978 0.20698573 0.25056165
-0.17430377 -0.18519776 -0.14162181 -0.47933537 0.21787971 0.25056165 -0.1525158 -0.2941376
0.3050316 0.0762579 -0.09804587 0.25056165 0.16340978 0.20698573 0.2941376 0.17430377
0.087151885 -0.11983384 0.13072783 -0.44665343 -0.087151885 -0.17430377 -0.16340978 0.26145566
0.20698573 0.751685 -0.10893986 0.18519776 -0.1525158 0.18519776 0.16340978 0.19609174
-0.13072783 -0.10893986 -0.14162181 0.40307748 0.087151885 0.13072783 -0.13072783 -0.16340978
0.3703955 0.14162181 -0.13072783 0.40307748 0.25056165 0.32681957 0.32681957 0.25056165
0.16340978 -0.13072783 0.2287737 -0.6209572 -0.14162181 -0.10893986 -0.25056165 0.32681957
0.28324363 -0.5882752 -0.10893986 0.21787971 -0.19609174 0.20698573 0.16340978 0.2941376
-0.1525158 -0.14162181 -0.14162181 -0.0762579 0.16340978 0.26145566 -0.17430377 -0.18519776
00000000: bcb0 92b7 b2bc bfbc bd99 b6c7 939c 91bd
00000010: b2d3 92b4 90b6 b5c6 9295 97c3 b9bb 9283
00000020: c2b7 8ebe bec2 d2c5 bd97 b6d9 968f 8dc3
00000030: be01 89c2 8ab6 c0cc 868e 929d c3c3 8e7e
00000040: acaa 9bad b3b3 bdaf a89e abbe 9e90 9ab3
00000050: b38b 94b6 98ab b4b6 9799 9a87 b1ac 988b
00000060: cdb4 8bc6 bbc8 cdc4 bc91 be94 918f 87cc
00000070: beff 8ec1 83bf c2cb 858d 8dd6 bcc2 8a7f
00000080: d8c1 85d9 ccdb e2cc c68d c69a 8f89 7cd3
00000090: d050 86d0 7bc5 cad7 7b83 869d cbd0 837a
000000a0: b1af 97b7 bbbf beb2 b199 b19d 9897 92b5
000000b0: b78b 95b7 8fb1 b5b9 9291 9576 b6b9 9487
000000c0: bea9 99b9 b1b5 bdb2 aa97 ae79 9a92 93ba
000000d0: b5e7 98b3 94b3 b1b4 9698 95c7 aaae 9693
000000e0: c4af 96c7 b9c0 c0b9 b196 b769 9598 8bc0
000000f0: bc6c 98b6 90b5 b1bd 9495 959b b1ba 9291
