examples/handwritten-sine/sine.tflite (tflite, 2640 bytes, 5 tensors)

sequential_1/dense_2/MatMul/ReadVariableOp/transpose f4 [16, 1]
0	0x3ea7197c	0.3263663
1	0x3eb98199	0.36231688
2	0x3e9f8b56	0.31160992
3	0xbf12d888	-0.5736165
4	0x3e561074	0.20904714
5	0xbedfc6fe	-0.43706506
6	0xbe5a10f2	-0.21295527
7	0xbe0ae2f0	-0.13563132
8	0xbe985a10	-0.29756212
9	0x3dce36b9	0.10069031
10	0x3e877f8f	0.26464507
11	0xbdfdb12c	-0.123873085
12	0xbe8aa6e6	-0.27080458
13	0x3eda3ea5	0.4262592
14	0xbded3450	-0.115822434
15	0xbe699190	-0.22809434

sequential_1/dense_2/MatMul_bias f4 [16]
0	0xbf484167	-0.78224796
1	0xbea0cd24	-0.3140651
2	0xbf0c92b7	-0.5491137
3	0x00000000	0.0
4	0x3f3cfe98	0.7382598
5	0x00000000	0.0
6	0x00000000	0.0
7	0x00000000	0.0
8	0x00000000	0.0
9	0xbe9a174a	-0.30095893
10	0xbeb6cb41	-0.35701945
11	0x00000000	0.0
12	0x00000000	0.0
13	0x3e1ed613	0.1551135
14	0x00000000	0.0
15	0x00000000	0.0

sequential_1/dense_3/MatMul/ReadVariableOp/transpose f4 [16, 16]
0	0xbddd984b	-0.10820063
1	0xbecb6b40	-0.39730263
2	0x3cd40c36	0.025884729
3	0x3eb544bd	0.35404006
4	0x3ee37095	0.4442183
5	0x3e86ace7	0.2630379
6	0x3d4ec400	0.05047989
7	0x3e1da67e	0.15395543
8	0x3ebb87bd	0.36626998
9	0xbf09b8b4	-0.5379746
10	0xbef81fa1	-0.4846163
11	0x3edd908d	0.43274346
12	0xbe6ffade	-0.23435542
13	0x3de475b2	0.11155261
14	0x3e36fe6e	0.17870495
15	0xbec21820	-0.3790903
16	0xbefbc739	-0.49175432
17	0xbe30a4fe	-0.1725044
18	0xbede91f7	-0.43470737
19	0x3e24abde	0.16081187
20	0x3ecebbfb	0.40377793
21	0xbe8023eb	-0.25027403
22	0xbe73587b	-0.23764221
23	0x3e032e9a	0.12810746
24	0xbca94210	-0.020661384
25	0xbd641210	-0.05568129
26	0x3d0c8de3	0.034315
27	0xbe97489e	-0.2954759
28	0xbed45134	-0.41468203
29	0x3e0d3b02	0.13792041
30	0xbe896762	-0.26836687
31	0x3da2df74	0.079527766
32	0xbeb325f3	-0.3498989
33	0x3d7b34ef	0.06132978
34	0x3de37061	0.11105419
35	0xbec076ba	-0.3759058
36	0x3ea7e97d	0.32795325
37	0xbed0abc3	-0.40756044
38	0xbedb7ccf	-0.4286866
39	0xbe9a2770	-0.30108213
40	0xbd3cf598	-0.046132654
41	0x3e4b4bff	0.19853209
42	0xbdf8a07e	-0.121399865
43	0x3d866ed4	0.065641075
44	0x3a074a00	0.0005160868
45	0xbe61244c	-0.21986502
46	0xbdf76854	-0.12080446
47	0xbe773f02	-0.2414513
48	0x3eb37923	0.35053357
49	0xbdad831c	-0.08472273
50	0x3e8d92c8	0.27651048
51	0xbd15f3a8	-0.03660932
52	0x3d6c4de6	0.057691477
53	0xbe98e7ac	-0.29864252
54	0x3ebdec81	0.370945
55	0x3e7355e2	0.2376323
56	0x3ec777c1	0.38958552
57	0x3d5e1b6e	0.054225378
58	0x3f027827	0.5096459
59	0x3d9021d4	0.07037702
60	0x3e1fdc52	0.1561139
61	0x3e88dabf	0.2672939
62	0xbde37980	-0.11107159
63	0xbe106f40	-0.14104939
64	0xbd2e4320	-0.042544484
65	0xbdc576f0	-0.09641826
66	0xbe04a0cc	-0.12951964
67	0xbed769f0	-0.4207301
68	0xbe64feb1	-0.22362782
69	0xbe844120	-0.25830936
70	0xbe26c3b2	-0.1628559
71	0xbe09f4d8	-0.13472307
72	0x3dd14464	0.102181226
73	0xbec8e1d5	-0.39234796
74	0xbe3fbc35	-0.18724139
75	0x3d8294c0	0.06376028
76	0xbdb12bdc	-0.08650944
77	0xbebfdb02	-0.37471777
78	0x3e8a7fa5	0.2705051
79	0x3ea2b421	0.31778052
80	0xbf5686cd	-0.8379944
81	0xbc763b9c	-0.01502886
82	0xbf606d85	-0.87667114
83	0xbe3c0086	-0.18359575
84	0x3e7e23c1	0.24818327
85	0x3e3fcd96	0.18730769
86	0x3e2d9186	0.16950044
87	0x3e87ef55	0.26549783
88	0xbe03977e	-0.12850758
89	0x3e01cd2a	0.1267592
90	0xbe8ec932	-0.27887875
91	0xbe3b7772	-0.18307284
92	0xbebca1e0	-0.3684225
93	0x3ea7b78d	0.32757226
94	0xbe95051c	-0.2910546
95	0x3ebb1ff7	0.36547825
96	0x3ed63ec9	0.41844776
97	0xbde94280	-0.11389637
98	0xbed20c27	-0.41024897
99	0xbe34325c	-0.17597336
100	0xbdcacb14	-0.09902015
101	0xbe673add	-0.22581048
102	0xbe8dbb1c	-0.27681816
103	0xbe5cac91	-0.21550204
104	0xbe6f4052	-0.2336438
105	0x3e9471d7	0.28993103
106	0xbe097118	-0.13422048
107	0xbed9299b	-0.42414555
108	0xbed2667d	-0.41093817
109	0xbeb2d698	-0.34929347
110	0x3a84c900	0.0010130703
111	0xbdc2dabc	-0.095143765
112	0xbf1bc21d	-0.6084307
113	0x3e92ddd4	0.28684866
114	0xbe6c8707	-0.23098384
115	0xbe3bc240	-0.18335819
116	0x3e9ce2bd	0.30641738
117	0xbea0b50a	-0.31388122
118	0xbe9cd5e2	-0.3063193
119	0x3e7cbb3e	0.24680802
120	0x3ecfb417	0.40567085
121	0xbec88ed5	-0.39171472
122	0x3e5cf97c	0.21579546
123	0x3d0dfc80	0.03466463
124	0x3e8bd5c5	0.2731153
125	0x3ea217f5	0.31658903
126	0xbe8960c7	-0.26831648
127	0x3d8795ec	0.06620392
128	0xbf5dc27a	-0.8662487
129	0x3e989477	0.2980077
130	0xbc073977	-0.008253447
131	0x3e002942	0.12515739
132	0x3ea9d0af	0.33167025
133	0xbec42331	-0.383081
134	0xbe5b3695	-0.2140754
135	0xbe83dcc7	-0.25754377
136	0x3e476b1e	0.19474456
137	0x3e99245b	0.2991055
138	0x3e542799	0.2071823
139	0xbddd20c8	-0.10797268
140	0x3e2f865a	0.17141095
141	0xbe69f080	-0.2284565
142	0xbd84fc44	-0.06493428
143	0xbe2aa082	-0.16662791
144	0x3e2ae687	0.16689502
145	0x3dae34d8	0.08506173
146	0x3eb5bd50	0.35495996
147	0xbe888cc4	-0.26669896
148	0x3ea5bce3	0.32370672
149	0x3e9edaa9	0.310262
150	0xbe23b83e	-0.15988252
151	0x3d159080	0.03651476
152	0x3ec33f97	0.38134453
153	0x3e9d5cca	0.30734855
154	0x3ee1e821	0.44122413
155	0xbc0149c0	-0.0078911185
156	0xbd880b00	-0.06642723
157	0x3ccaf73f	0.0247761
158	0x3eb15afb	0.34639725
159	0x3c0dd260	0.008656114
160	0xbf7823ce	-0.96929634
161	0xbeb94f8f	-0.3619351
162	0xbf346a69	-0.7047487
163	0x3ea95e4b	0.33079752
164	0x3ed98c64	0.42489922
165	0x3e367752	0.17818955
166	0x3ebeafeb	0.3724359
167	0x3c36be40	0.011153758
168	0xbd3b6508	-0.045750648
169	0xbd66e055	-0.056366283
170	0xbe9be8d2	-0.30451065
171	0xbe09e386	-0.134657
172	0x3edd3d93	0.4321104
173	0x3f18660f	0.5953073
174	0xbd330518	-0.04370603
175	0xbed715de	-0.4200887
176	0xbe49cfaa	-0.19708124
177	0x3e64a5a2	0.22328809
178	0xbe429ce6	-0.19005165
179	0x3dcc4254	0.099735886
180	0xbe9dbda0	-0.30808735
181	0x3e4869c2	0.19571593
182	0xbea28b5b	-0.31746945
183	0x3d8713c0	0.06595564
184	0x3e69fd36	0.22850499
185	0xbe408605	-0.18801124
186	0xbece7a1e	-0.40327543
187	0xbea71346	-0.32631892
188	0xbe865268	-0.26234746
189	0xbd869e04	-0.06573108
190	0x3dc1548c	0.09439954
191	0x3cad3be0	0.021146715
192	0xbd856742	-0.065138355
193	0x3e4297ea	0.19003263
194	0xbf3b136e	-0.7307652
195	0x3e165b56	0.1468328
196	0x3edfabaa	0.43685657
197	0x3d3641c8	0.044496328
198	0xbe472d24	-0.19450814
199	0x3eaea577	0.34110615
200	0x3c5bc2c0	0.013413131
201	0x3e4eacac	0.20183057
202	0xbe13ec99	-0.14445724
203	0x3e73abf2	0.2379606
204	0xbe48a1aa	-0.1959292
205	0xbe01d3e8	-0.12678492
206	0xbdc7b760	-0.09751773
207	0x3dd37264	0.10324553
208	0x3e99d383	0.30044183
209	0xbe34760c	-0.17623156
210	0x3e0dda42	0.1385279
211	0x3e9a47fb	0.30133042
212	0xbe92dc8b	-0.28683886
213	0x3e6b7f56	0.22997794
214	0xbd88d404	-0.06681064
215	0x3e809e11	0.25120595
216	0x3dff893c	0.12477347
217	0x3e883eb3	0.26610336
218	0x3e88f0f7	0.26746342
219	0xbec9fb28	-0.3944943
220	0x3ecf3e53	0.40477237
221	0xbedc75ac	-0.43058527
222	0x3ed7cadd	0.4214696
223	0x3ea75801	0.3268433
224	0xbf13b829	-0.5770288
225	0xbc128176	-0.008941999
226	0xbf168b28	-0.58806086
227	0x3e0eec0e	0.13957235
228	0xbddb0a40	-0.106953144
229	0xbdbfec98	-0.093712986
230	0xbe0c5532	-0.13704374
231	0x3ec9f9fb	0.39448532
232	0xbe6d4a83	-0.23172955
233	0xbee25976	-0.44208878
234	0xbb9f7d54	-0.004867235
235	0x3e95e89d	0.29279032
236	0x3dd0d35c	0.101965636
237	0x3eb08a19	0.3448036
238	0xbe2e6fde	-0.17034861
239	0x3d8316d0	0.064008355
240	0xbf117d9c	-0.5683229
241	0x3c25cc2b	0.010119478
242	0xbe27a52a	-0.16371599
243	0xbec71422	-0.38882548
244	0x3eac7a5e	0.3368711
245	0xbe94414e	-0.28956074
246	0x3e7b685a	0.24551526
247	0x3e4efd86	0.20213899
248	0xbe6a56a2	-0.2288461
249	0xbe81feca	-0.253897
250	0xbdb1c343	-0.08679821
251	0x3ea7b8c5	0.32758155
252	0x3ecd2355	0.4006602
253	0x3e762eaf	0.24041246
254	0xbe90a869	-0.28253487
255	0x3eb9ba0d	0.36274758

sequential_1/dense_3/MatMul_bias f4 [16]
0	0x3de2d653	0.11076035
1	0x3eccb666	0.3998291
2	0x3ef6e703	0.48223123
3	0xbf1028e0	-0.5631237
4	0x00000000	0.0
5	0x3eb03d3e	0.34421724
6	0x00000000	0.0
7	0x3e77f062	0.24212793
8	0x3ea49da6	0.32151526
9	0xbef34b3a	-0.4751833
10	0x3ea79e71	0.3273807
11	0x00000000	0.0
12	0x3ea23934	0.31684268
13	0x00000000	0.0
14	0x3e4a9ccc	0.19786376
15	0x3ea340ab	0.31885275

sequential_1/dense_4/MatMul/ReadVariableOp/transpose f4 [1, 16]
0	0x3f6771b3	0.90407866
1	0xbf957a9a	-1.167804
2	0xbee848e1	-0.45368102
3	0x3e96728a	0.2938426
4	0xbbd3d200	-0.006464243
5	0x3fd7c51a	1.6857026
6	0xbec87eac	-0.39159143
7	0xbe95a790	-0.29229403
8	0xbedcd73b	-0.43132958
9	0x3f16a841	0.58850485
10	0x3fcb5b50	1.5887241
11	0xbeedb952	-0.4643045
12	0xbec6a72e	-0.38799423
13	0xbf140faf	-0.5783643
14	0x3f59dab3	0.85099334
15	0xbed7ec02	-0.42172247
